model/lstm_model.pth (torch, 76393 bytes, 6 tensors)

lstm.weight_ih_l0 f4 [256, 1]
000000 41 7d 34 3d 6e 48 44 3e e1 c6 a8 3d 94 28 24 be
       0.044064764 0.19168255 0.08241058 -0.16031104
000010 3f 9e 39 bd 32 74 b5 3e 36 09 d8 3e cc 19 9a 3d
       -0.04531693 0.35440212 0.42194527 0.075244516
000020 1d 83 20 3e d9 6b 88 3d 65 98 9c 3e b4 33 c5 3e
       0.15675016 0.06661195 0.30585018 0.3851601
000030 19 b5 79 be 05 1f a5 bd 15 86 34 3e 11 fb d1 3e
       -0.2438549 -0.08062557 0.17629273 0.4101186
000040 07 2a c1 ba 6a ec f7 be cf 0d 16 3e f7 b5 7b 3e
       -0.0014737257 -0.48422557 0.14653705 0.24581133
000050 b1 1b 47 be b2 4e cc 3d db 22 f2 bd ee e7 dc bd
       -0.19444157 0.099759474 -0.118230544 -0.107864246
000060 f6 39 5d be 0d 7e 0a 3e da 18 9d bc 99 ba a2 be
       -0.21604142 0.13524647 -0.01917689 -0.31782988
000070 9d 2f 60 3e de a7 a9 be e4 2e bd 3d a4 cf 45 3c
       0.21893163 -0.33135885 0.09237459 0.012073431
000080 44 37 6a bd ae a3 4c 3e 30 82 c4 3e 99 39 8e be
       -0.05718161 0.19984314 0.38380575 -0.2777832
000090 59 2f 5d 3e ee f5 96 bd 6d 45 f6 be 50 2c f9 3d
       0.21600093 -0.07371126 -0.48099843 0.12166655
0000a0 44 93 02 3f b3 a7 e0 bc 43 08 ba 3e 2a 0f 4d bd
       0.5100596 -0.027423715 0.36334428 -0.05006329
0000b0 93 8c 9b 3d 36 8e c6 3d 9e 9e 17 bc 4b 0b f6 3d
       0.07595172 0.09695093 -0.009254126 0.12013873
0000c0 ea 07 35 3f bb 56 88 3d e8 94 76 3e db 13 c0 bd
       0.707152 0.066571675 0.2408024 -0.09378787
0000d0 cf 9f 8f 3e 8a 7a 0c bf c7 dd 7e be 47 fe bf 3e
       0.28051612 -0.5487448 -0.24889289 0.37498686
0000e0 35 5b e4 bb d1 45 5e bb cc 6b 4c 3e 2f bd 23 be
       -0.0069688805 -0.0033916126 0.19962996 -0.15990137
0000f0 b2 18 1d be 05 e5 29 3e 80 86 7f 3d bd b1 ef bd
       -0.15341452 0.1659127 0.06238413 -0.11703823
000100 5b f2 85 be 36 06 59 bf 2c 68 40 3d 70 ff 77 be
       -0.26161465 -0.847751 0.046974346 -0.24218535
000110 66 e3 a4 3e 30 a8 19 bd 20 eb 18 3e ed 05 ba 3e
       0.3220474 -0.03751391 0.14933443 0.36332646
000120 20 e1 75 bf 50 ed 62 bd 1a a0 d9 3e 79 5b 92 3e
       -0.9604664 -0.0554021 0.4250496 0.28585413
000130 23 4d 0e 3f 5c bf a2 bf 74 67 6b 3f 76 77 af 3e
       0.5558645 -1.2714648 0.9195473 0.3427083
000140 ea f9 23 bd dc 6e 75 3d d6 73 3e bf bf 8a 1e 3f
       -0.04003326 0.059920177 -0.743955 0.6193046
000150 e0 59 6e bc 30 c4 36 be 2f 85 4f 3e 71 0d e8 3d
       -0.014547795 -0.17848277 0.2026565 0.11330689
000160 3c 59 bd 3a 9b f9 11 3f c1 ad 65 bf b9 7d 15 be
       0.001444615 0.5702149 -0.8971825 -0.1459874
000170 00 72 e8 3e 06 2e 71 be 8b 38 da be b5 34 08 3e
       0.45399475 -0.23552713 -0.42621264 0.13301356
000180 1f b4 fc bc ac ff 3b bf d4 67 98 bc b1 ad fb 3e
       -0.030847607 -0.73437 -0.018604197 0.49155954
000190 61 d7 d9 3e 6e 71 1f 3e d8 72 12 bf cf e6 81 3f
       0.42547134 0.15570614 -0.5720649 1.0148562
0001a0 92 1d 2b 3f ab d9 5d be ac 61 26 3f d2 cc e4 bd
       0.66841996 -0.21665065 0.64992785 -0.11171879
0001b0 51 ed 4f 3e aa 86 43 be 20 94 b4 3c 7c fa 12 3f
       0.20305373 -0.19094339 0.022043288 0.5741346
0001c0 a5 cd 25 3d 53 38 56 bf 96 15 f0 be eb 14 51 be
       0.04047932 -0.83679694 -0.4689147 -0.20418136
0001d0 16 47 76 bf c4 15 a2 3e f8 d1 04 bf 09 a6 9d 3e
       -0.9620222 0.3165723 -0.51882887 0.30790737
0001e0 95 cd 98 be 2f 9d 0b be 44 33 80 bf 19 d2 08 bf
       -0.29844347 -0.1363418 -1.0015645 -0.53445584
0001f0 1f cd ad be d8 af 57 3f b8 c4 bc be 2a cb ab bc
       -0.33945557 0.8425269 -0.36868834 -0.0209709
000200 8b 69 8b 3e 9e f0 c7 bd b5 ac 4b be cb a7 04 3e
       0.2722896 -0.09762691 -0.19890101 0.12954633
000210 f6 87 23 3e 09 f0 3b 3e 11 0d cf 3e d6 98 b3 be
       0.15969834 0.18353285 0.40439656 -0.35077542
000220 b0 03 05 3f 02 8a cd bd d0 1e 48 3e 5b 08 c7 3e
       0.5195875 -0.100360885 0.19543004 0.38873562
000230 15 ac f4 3d 31 3a f2 3e e1 d7 86 3f 0c d7 62 be
       0.119468845 0.47310022 1.0534631 -0.22152346
000240 07 a0 d1 be 98 3b d4 3b 04 3a e1 3d c6 2b c4 be
       -0.40942404 0.0064768307 0.10997394 -0.38314646
000250 90 7f 26 3e b9 4c 7c 3f 8f aa 05 3e a2 42 0d be
       0.16259599 0.9855457 0.13053344 -0.1379495
000260 57 6b be bd e9 34 21 3f 6a f5 13 3f 8c 0b c7 bc
       -0.09297817 0.6297136 0.5779635 -0.024297498
000270 0e 18 01 3f 61 ec 31 3c 50 68 d6 3d 71 b2 94 3e
       0.5042733 0.01085958 0.10469115 0.2904239
000280 44 43 0b bf 4b e1 04 bf 69 32 01 3f c3 47 0a 3f
       -0.54399514 -0.5190627 0.50467545 0.5401575
000290 56 f2 63 bf b0 a6 64 be 9d 70 0e 3f 63 47 3f bf
       -0.8904165 -0.22329211 0.55640584 -0.747183
0002a0 08 af 51 3f 82 dd b0 3d 5a c9 a5 3f 47 6b be bd
       0.819077 0.08635999 1.2952073 -0.09297805
0002b0 80 2c b2 3e c2 a4 22 bc 35 8d 4f 3f 21 e8 c1 be
       0.34799576 -0.009926977 0.8107484 -0.37872413
0002c0 c8 da 87 3f 34 bf 52 3f 6a d1 d8 3e e9 28 fa bd
       1.0613642 0.82323 0.4234727 -0.12214834
0002d0 50 6b 2e 3e d7 3f 71 3e 92 d9 8a be 7b 00 96 3f
       0.17033124 0.23559509 -0.27119118 1.1718897
0002e0 27 d6 d5 3e a8 f5 8b 3e 34 b3 3f be 64 8f 36 bf
       0.41764948 0.27335858 -0.18720704 -0.71312547
0002f0 38 b4 9c bb cc a7 c8 be eb ae 8e 3e 3a c3 85 3f
       -0.004782226 -0.3919052 0.27867827 1.0450203
000300 c3 b7 75 3d b8 f3 d6 3d 86 0c f1 3c 50 90 8e be
       0.059989702 0.104957044 0.029424917 -0.27844477
000310 1c 5a 41 3e 53 10 a7 be 64 a1 85 3e 72 4f 6f 3e
       0.1888203 -0.32629642 0.26099694 0.2337015
000320 09 72 00 be f9 e7 83 3e cb 22 5f 3f ed 13 84 ba
       -0.12543501 0.2576292 0.87162465 -0.0010076739
000330 c6 a5 87 bf d7 5f e0 be 80 95 0c 3f c0 d8 84 3e
       -1.0597465 -0.4382312 0.5491562 0.25946617
000340 02 f5 73 be 19 08 e7 3d f4 b0 21 3f ec b8 7b 3e
       -0.23823932 0.112808414 0.63160634 0.24582261
000350 a2 3d be be 62 63 97 3b cd eb 66 be 10 1f 88 bf
       -0.37156397 0.0046200017 -0.22550888 -1.063448
000360 ce 4f 7b bf fc 83 54 3e 0e 4b 8d be 00 b7 f0 be
       -0.9816865 0.20753473 -0.27596325 -0.47014618
000370 49 b0 fc 3d 89 26 69 bf b9 4d 63 bf 5f e6 bb 3d
       0.12338311 -0.91074425 -0.8879047 0.09174799
000380 9a c4 b1 3d c4 e3 9d 3e 3b f0 da 3e a1 cd 40 3e
       0.08680077 0.30837834 0.42761406 0.18828441
000390 1c e8 ce 3d 79 44 61 be 91 19 85 be 25 b0 dc 3d
       0.10102865 -0.21998776 -0.25996068 0.107757844
0003a0 a6 06 a6 3e e9 8c a8 be 83 67 96 3b 2d ff 6c 3d
       0.32426947 -0.32920006 0.0045899763 0.057860542
0003b0 b4 3d 0b 3f 84 c0 43 3c 98 5b 42 be b3 31 63 3f
       0.54391026 0.011947755 -0.18980253 0.8874771
0003c0 13 77 b4 3e 67 39 a1 be b9 47 63 3d 1c 21 ed be
       0.35247096 -0.31489107 0.055488322 -0.46314323
0003d0 18 6d 87 bf 3b ee 11 bd 30 60 8c bf dc 79 38 3f
       -1.0580168 -0.035627585 -1.0966854 0.7206094
0003e0 82 33 75 be 4d 57 c8 3e fc c8 a1 be 87 b5 f6 be
       -0.2394543 0.39129105 -0.3159865 -0.4818537
0003f0 24 dd 99 be 7b f3 ed 3e 3d 07 f3 bd fb 55 7b be
       -0.3005153 0.46474823 -0.11866615 -0.24544518

lstm.weight_hh_l0 f4 [256, 64]
000000 d2 79 4a be 62 76 3d bd ee a1 a4 be 00 3f 10 be
       -0.19773033 -0.046255477 -0.32154793 -0.14086533
000010 2f 81 31 3e 80 5b 44 be f5 2f ac 3e 27 0f ab be
       0.17334436 -0.1917553 0.33630338 -0.33409998
000020 f2 64 1d 3d 34 48 56 be 4f a5 ad bd c8 46 69 3e
       0.038426347 -0.20925981 -0.08478796 0.22780907
000030 f6 09 86 3e ef 23 88 be b0 14 08 3e d8 09 11 be
       0.26179475 -0.26589915 0.13289142 -0.14163911
000040 4b 60 fe bd 66 cf f2 bd ac aa c0 3d ec 9b 5a be
       -0.1242071 -0.11855964 0.09407553 -0.21348542
000050 8d f1 82 3e 65 18 5c 3e 54 05 28 3e 96 7c 2e bd
       0.25574914 0.21493681 0.16408283 -0.042599283
000060 3a a9 8e 3b ed 0e bf 3e b3 56 6a 3c 2f c2 ac 3d
       0.0043536695 0.37316075 0.014302897 0.08435475
000070 4a 31 37 3e cd 2e 2d be 5c 09 87 3c 55 b4 e3 bd
       0.17889896 -0.16912384 0.016483955 -0.1111838
000080 6d e2 b7 be 11 72 bd 3d b9 b9 cc 3d 13 bd 86 3e
       -0.35914937 0.09250272 0.09996361 0.26316127
000090 41 45 c8 bd 18 3b cc 3d f9 4f 12 bd 5c e2 94 be
       -0.09778834 0.09972209 -0.0357208 -0.29078948
0000a0 ad d3 e7 3e ee 0a 02 3d 1a 95 63 3e 13 5e d1 3d
       0.45278683 0.031748705 0.22224846 0.10223021
0000b0 63 74 88 3e ee 75 c7 3d 31 2d bf bd 4b 50 47 be
       0.26651296 0.0973929 -0.093347915 -0.19464223
0000c0 aa 32 3a 3e da 9f 5e be 62 86 8a 3e 5f 5d 43 3e
       0.1818339 -0.21740666 0.2705565 0.19078587
0000d0 97 04 8e bc f0 17 bc 3e 22 29 41 3d df d2 2b 3e
       -0.017336173 0.36737013 0.047158368 0.1677966
0000e0 fe 61 9b bd 8e 6c 20 be 6b 58 95 3e dc 4b 14 3e
       -0.0758705 -0.1566641 0.2916902 0.14482063
0000f0 0c b9 d8 3e f7 34 e3 bd b3 19 9e be b6 87 4f be
       0.4232868 -0.110940866 -0.30878982 -0.20266613
000100 1d 93 40 be dd 87 ff bc f2 cc e9 be 3b 0e 76 3e
       -0.1880612 -0.031192714 -0.45664173 0.24028866
000110 63 ce 34 3e a0 0f ae bd c2 45 c4 3e c4 20 c2 be
       0.17656855 -0.08499074 0.3833447 -0.37915623
000120 0b 25 98 3d f1 3c 95 be 7a df 15 3e 85 1f 79 3e
       0.074289404 -0.29148057 0.14636031 0.2432843
000130 a8 4a a4 3e 5d 20 9d 3b c3 53 e6 3e ea 62 39 be
       0.32088208 0.004795118 0.4498578 -0.18104139
000140 ba 6e 8e 3b a1 fc 82 be 8b 83 0d 3e e2 59 90 be
       0.0043466957 -0.25583366 0.13819711 -0.28193575
000150 20 cd bf 3e 61 ca 53 ba d7 16 8d 3e 45 47 8b bd
       0.37461185 -0.0008079168 0.27556488 -0.06800703
000160 00 8d 09 3e de 68 fc 3e 84 42 c4 3e ad b3 30 3e
       0.13432693 0.49298757 0.38331997 0.17256041
000170 f8 f3 ad 3e 11 7a 99 bd 6a 9d a3 3e 10 36 98 3d
       0.33975196 -0.074939854 0.31956035 0.074321866
000180 90 fe c2 be 1b 26 b7 3d c0 5d 3d 3e a7 b5 2a 3f
       -0.3808484 0.08942815 0.18492794 0.6668343
000190 91 05 0e 3d 0a fc 59 be 60 ea 83 3c 9a c5 98 be
       0.034673277 -0.21287552 0.01610297 -0.29838258
0001a0 97 e7 b0 3e 14 e1 23 be f2 10 cc 3e 6a fe 96 3d
       0.3455169 -0.16003829 0.39856678 0.073727444
0001b0 36 58 e7 3e 57 0c fe 3d 3a 79 88 bc f7 50 bb be
       0.45184487 0.124046974 -0.016659368 -0.3658521
0001c0 7f 7a f3 3c bb bc af 3d d7 7b 4f 3e ee da 4a bb
       0.029721497 0.08580919 0.20262085 -0.0030953246
0001d0 af 77 cb 3d c5 52 aa 3e 7c 8b 39 3d 89 0c 6f 3e
       0.09934937 0.33266273 0.04529904 0.23344626
0001e0 4b a4 a3 bd 47 56 27 bd ac 95 97 3e de 54 2e 3e
       -0.07990321 -0.040853765 0.29606378 0.17024562
0001f0 86 3b bb 3e 4b 52 c6 bd 8f 0b 30 be 62 ea 9d 3d
       0.3656885 -0.09683665 -0.17191909 0.077107206
000200 07 4a 34 be 49 7e 08 3c c3 3d 63 be 70 7b ee 3d
       -0.17606364 0.00833089 -0.22191529 0.116446376
000210 95 52 55 3e dd ba 0d be 63 31 9f 3c d9 80 9f 3c
       0.20832284 -0.13840814 0.01943273 0.019470619
000220 c1 d5 8d be 40 af 0f be df 48 39 3e a9 18 13 3e
       -0.27702144 -0.14031696 0.18094204 0.14364876
000230 03 26 48 3e 3d 55 02 3e a9 8b de 3d a0 ec de bd
       0.1954575 0.12727828 0.10866482 -0.108849764
000240 a1 b5 2c 3d 69 24 62 be d8 ab 7b bd cf e8 34 be
       0.042165402 -0.22084202 -0.06144318 -0.17666934
000250 b2 e0 45 3e 88 32 89 3c 75 94 69 3e c7 5d dc 3d
       0.19323996 0.016747728 0.22810538 0.10760074
000260 99 54 e8 3d ef a2 7b 3b 93 60 71 3e 17 90 6b bc
       0.11344261 0.0038396677 0.23571996 -0.014377615
000270 55 53 4b bc a3 f1 b1 be 9d ff a5 3d 1d a5 89 3c
       -0.012410005 -0.34754667 0.08105395 0.016802365
000280 55 49 3d 3d ce 09 8e 3e 91 2a 64 3d 46 81 b1 3e
       0.046212513 0.27741855 0.055704657 0.3466894
000290 58 ef 37 3e cb 96 45 be bc 9d f2 bd 48 40 81 be
       0.17962396 -0.19295804 -0.11846492 -0.25244355
0002a0 62 0d 82 be 54 d3 e2 bd b8 94 01 3e d7 d4 d8 3d
       -0.25400835 -0.11075464 0.12654388 0.10587471
0002b0 3d d8 c4 3d 61 41 65 3e e4 74 a9 3c 53 f3 fd bc
       0.09611557 0.22388221 0.02068562 -0.030999815
0002c0 cd f4 2a be 08 1d 06 3e da 68 b0 bd fc c7 e0 3d
       -0.16694947 0.13097012 -0.08613749 0.10975644
0002d0 d4 39 88 3b 70 0b df 3e fb cc d0 3d 2d db 24 bd
       0.0041572843 0.43563414 0.10195347 -0.040248085
0002e0 a4 77 7e be a3 56 3c 3e 9a 97 8c bd 24 09 f9 3d
       -0.24850327 0.18392424 -0.06864853 0.121599466
0002f0 d9 d1 7d 3e a0 67 d1 bc 90 5e 94 3c 65 ef 9b bd
       0.24787082 -0.025562108 0.018111497 -0.0761402
000300 da 2f 7e be 88 47 92 bd 68 31 0e be 29 31 8a 3e
       -0.24822941 -0.0714255 -0.13886034 0.2699063
000310 76 7a 91 3e f0 19 09 be 54 cd 5c 3e 75 ec 0a 3d
       0.28413743 -0.133888 0.21562701 0.03391691
000320 05 d0 d9 3c 88 ff c6 bd b0 f8 32 3d 12 4e 6d 3e
       0.02658845 -0.097167075 0.043694198 0.23174313
000330 07 07 42 3e 8d 79 19 bb f0 05 1d 3e cd c9 59 be
       0.18947993 -0.0023418397 0.15334296 -0.21268387
000340 f4 b0 b0 3d b7 e2 7c be d0 e7 df 3d 73 0a b0 3b
       0.08627501 -0.2469586 0.109328866 0.0053723394
000350 fe c3 9b 3e ba 02 2b be 8f 7e 81 3e d6 85 ca 3d
       0.30422968 -0.16700259 0.2529187 0.098888084
000360 71 c0 7e 3e 95 d4 41 3e 6f b6 33 3e 43 42 2f 3e
       0.24878098 0.1892875 0.17550062 0.1711512
000370 c8 9c 5b bd 58 a0 24 be 77 74 9e 3e 4a 34 49 3e
       -0.053616315 -0.16076791 0.3094823 0.19648853
000380 9d 8f 68 3d 7b aa 36 3e c3 7d 28 3d 4e 6e 6b 3e
       0.056777585 0.1783847 0.04113556 0.22991297
000390 59 a6 47 3e 50 ed 02 be 53 2e ae bd d1 5f c4 bd
       0.1949705 -0.1278584 -0.085049294 -0.09588588
0003a0 92 26 df 3d 80 3a 96 be 75 4e 3d 3e 83 2e 87 3d
       0.108960286 -0.29341507 0.1848696 0.06600668
0003b0 80 cd 73 3e 90 71 40 be 16 f2 81 bc 15 03 b0 bd
       0.23808861 -0.1879332 -0.015862506 -0.08594338
0003c0 0f f3 af bd 32 d4 c8 3d 2a 5e a3 3e e6 bf 54 3d
       -0.085912816 0.09806098 0.3190778 0.05194082
0003d0 52 e0 87 3e ec 28 54 3d 60 87 6d 3e 6f 4f e9 3c
       0.2653833 0.05179684 0.23196173 0.02848026
0003e0 39 f7 85 bc 22 20 69 bb f7 34 b9 3d 61 d5 02 3e
       -0.016353237 -0.0035572131 0.09043305 0.1277671
0003f0 63 f5 4b 3e 0d 7e 3a 3e 99 1a 6a bd 17 ec 82 bd
       0.19917826 0.18212147 -0.05715427 -0.06392687

lstm.bias_ih_l0 f4 [256]
000000 f2 9e 8d 3b 7c 7e c5 bc ec ce 3c 3e 1a 18 a7 3e
       0.0043219263 -0.024108164 0.1843831 0.32635576
000010 88 25 08 3e 02 36 0a bc c7 c2 aa bb 0a 46 2a 3e
       0.13295567 -0.008435728 -0.0052112076 0.1662828
000020 45 c7 0f 3e d7 5a 01 3e 74 2a 04 3e a2 aa 67 bd
       0.14040859 0.12632309 0.1290682 -0.056559213
000030 c9 72 8b 3e 50 4b a9 3d 10 c0 6f 3e 50 87 02 3e
       0.27236012 0.08266318 0.2341311 0.1274693
000040 2c 5c e0 bc 77 fb 42 3e 49 ef e4 3d 9b 1e 2a 3d
       -0.027387701 0.19041239 0.111784525 0.041533094
000050 ee 6a 50 3e ac 85 f0 3d 19 75 3b 3e 61 d2 0e 3e
       0.2035329 0.11744246 0.18306388 0.1394744
000060 50 f6 f4 3d 27 72 a4 3d e4 44 bd bc 3f 97 94 3e
       0.11961043 0.08029585 -0.023104139 0.29021642
000070 5c 55 f8 3c 28 69 b4 3d f6 38 3f 3e 78 d6 17 3e
       0.03031414 0.088091195 0.18674073 0.14827907
000080 f0 6a dc bd 93 3c 39 3e 89 28 4d 3e 27 8c 42 3e
       -0.10762584 0.18089513 0.20034994 0.18998776
000090 f4 94 10 bd f0 55 01 3e 4d 2e 0a 3f e3 b3 85 3d
       -0.035298303 0.12630439 0.539769 0.06528451
0000a0 8c 6a f3 3d ad 0f a0 3d d5 9c a4 3d e6 d3 0b 3e
       0.118855566 0.0781549 0.08037726 0.13655052
0000b0 9c fc 70 3e 7e f7 6c 3d bf 89 58 bc f5 fc 62 3e
       0.23533863 0.057853214 -0.013216435 0.22166808
0000c0 21 7b 27 3e 9d 5b 97 3e 98 a6 1e 3e 6f 7d 84 3c
       0.16355564 0.29562083 0.15493238 0.016173093
0000d0 6b 11 6b 3e d9 5c 89 3e 6d c9 dd 3d 88 58 0a 3e
       0.22955863 0.2682865 0.108294345 0.13510334
0000e0 02 0a 34 3e 5b 67 06 3e 6d d4 c2 3d 92 2e 96 3d
       0.17581943 0.13125364 0.09513173 0.07333101
0000f0 51 a6 26 3e 62 3a f8 3d 2b 9a 47 bd 73 bd 08 3e
       0.16274382 0.12120511 -0.04873101 0.13353519
000100 30 15 5a 3d 70 be 13 bd 89 b2 de 3d c8 1c 98 3e
       0.053242862 -0.036070287 0.10873897 0.29709458
000110 00 6b 54 3d 5f 45 b5 3d d5 72 d4 3d cd f3 e2 3d
       0.051859856 0.08851122 0.10373465 0.110816576
000120 f9 30 04 bd f4 a4 2d 3e 48 9a 10 3e 6f 59 fe 3d
       -0.032273266 0.16957456 0.14121354 0.12419402
000130 b9 a2 67 3d e5 3a 58 3e ce ae bb bd 0c 98 31 bd
       0.05655167 0.21116216 -0.09164201 -0.043357894
000140 19 98 28 be 7c 31 78 3e da 47 04 3e d6 a4 ce bd
       -0.1646427 0.24237627 0.12918034 -0.10090034
000150 5c 5d f7 3d 50 93 13 be 1e 8d 8a 3e 02 ba b0 3d
       0.12078354 -0.14411664 0.2706079 0.08629228
000160 73 f3 70 3c c9 12 b6 3d 2c cd a4 3d 20 d3 80 3e
       0.01470648 0.08890302 0.08046946 0.25161076
000170 9c 4b eb bd 91 d5 7f b9 44 0f eb 3d 83 3d e2 bb
       -0.11489031 -0.00024398255 0.11477521 -0.0069043054
000180 9a 3a 84 3c 07 d1 f7 3d d7 d9 0f 3d 5d ff 86 3d
       0.016141225 0.12100416 0.035119858 0.065916754
000190 5e 20 a7 bd e5 74 35 3d 6c 4b 2b 3d 26 38 1a 3d
       -0.081604704 0.044300932 0.041819975 0.037651204
0001a0 4f 50 25 be 4c d4 d0 3d bb 70 4e bd 9b 5b 53 3d
       -0.16143917 0.101967424 -0.050400477 0.051601034
0001b0 5a 85 d9 ba 5a f8 69 3e 29 61 1a 3d 3a 7f e3 bc
       -0.0016595528 0.22848645 0.037690315 -0.027770627
0001c0 a7 72 51 bd bc 75 67 bd 36 2c 28 3d bd e7 3d 3e
       -0.05113473 -0.056508765 0.041057788 0.18545432
0001d0 59 02 41 3e db 4d 2a 3d f8 b5 55 3e 57 6b a1 be
       0.18848552 0.041578155 0.20870197 -0.31527206
0001e0 9f ff f7 3d bd d1 c8 3d 37 57 bd 3d 32 ce 45 bb
       0.12109303 0.098056294 0.092451505 -0.0030182716
0001f0 e7 37 1c 3d 1b 9d 2a 3b 97 d1 26 3d e8 48 0c bd
       0.03813925 0.0026033584 0.040727224 -0.034249216
000200 73 f0 04 be 93 08 bd bc 94 44 24 be 18 73 d2 3d
       -0.12982349 -0.023075378 -0.16041785 0.10275859
000210 96 29 6b 3d f6 79 0c bd f6 32 3c 3e fb a8 cd bb
       0.057412706 -0.034296 0.18378815 -0.0062762476
000220 23 55 22 be a8 a1 d3 bd bf 4c c8 3d 75 be de 3d
       -0.1585279 -0.10333568 0.09780263 0.108761705
000230 13 69 43 3e 3c f7 27 bd 7d bf 11 3e 6a b9 c1 bd
       0.19083051 -0.041007265 0.14233203 -0.09459193
000240 9a 03 fe bc 14 b6 02 be 82 14 2d bd 4e 5d 2b bd
       -0.031007577 -0.1276477 -0.042255886 -0.04183703
000250 b1 bf c8 3d 52 0a 94 3d 67 28 69 3e 7d e0 45 3e
       0.09802187 0.07228531 0.22769319 0.19323917
000260 7a 7d 3c 3e 40 e4 67 3d d8 20 1f bd 46 33 bb 3d
       0.1840724 0.05661416 -0.03884968 0.09140639
000270 f2 ec e2 3d f7 db d6 bd 1e 92 18 3e 41 94 ac bd
       0.1108035 -0.10491174 0.1489949 -0.08426715
000280 06 a0 e0 3d bb 11 64 3e 1a 41 a6 3d 4d 99 e1 3d
       0.10968022 0.22272389 0.08117886 0.11015568
000290 e6 e4 cf 3d fe 57 ad bd a1 41 13 be ae 45 26 be
       0.10151081 -0.08464049 -0.14380504 -0.16237518
0002a0 e5 45 b3 3c 70 30 60 be 5c 18 51 3d 3c cd fd 3d
       0.021883914 -0.21893477 0.05104862 0.12392661
0002b0 3e 15 b3 3d 7c 73 22 bd 3b 5d 7b bc 60 21 75 3d
       0.08744286 -0.039660916 -0.015342052 0.059846282
0002c0 59 dc 2d 3d d4 76 de bd 96 f5 13 3e 34 35 e9 3d
       0.042446468 -0.108625084 0.14449152 0.11387101
0002d0 78 8e 2c 3b c4 2a 60 bc ac 7c 3c 3e f6 8d 05 bc
       0.0026330035 -0.013682071 0.18406934 -0.008151522
0002e0 d4 0e 41 be 85 a8 03 be 14 97 bf 3d 5c 87 6a 3e
       -0.18853313 -0.12857254 0.09354988 0.22903198
0002f0 1f 5b 2e 3e 94 84 0a bc 9b 52 2a be 9d d2 26 bc
       0.17026947 -0.008454461 -0.16633074 -0.01018205
000300 c7 98 02 3e fe e0 29 3e bc 04 86 3d 6f 14 73 3e
       0.12753592 0.16589734 0.06543872 0.23738264
000310 fa c3 12 3e 53 34 7e 3d f0 18 78 3e e8 8e b5 3d
       0.14332572 0.06206162 0.24228263 0.08865148
000320 ae 6c bd 3e f7 66 01 3e a1 d1 f2 3b 3a 32 66 3e
       0.3699698 0.12636934 0.0074102436 0.22480097
000330 b8 2b f9 3d 69 8d 88 3e 5b bf 9c 3e 84 75 1e bb
       0.12166542 0.26670387 0.30614743 -0.0024178931
000340 25 1c 6d 3e e7 34 d1 3e 77 02 bd 3d 14 8d f7 3c
       0.23155268 0.40860674 0.09228986 0.030218638
000350 88 39 da 3d 08 ff 83 3e 9e 53 35 3e da 99 75 3e
       0.106555045 0.2578051 0.17707679 0.23984471
000360 ce 14 d5 3d 43 5a b8 3e 63 d9 ba 3d 78 54 b0 3d
       0.10404359 0.36006364 0.091234945 0.08609861
000370 43 8b 64 3e 3c 8f 84 3e 03 dd 6a 3e 17 59 85 3e
       0.22318749 0.2589053 0.22935872 0.26044533
000380 79 c3 0a 3e 3a 96 a6 3e 7c 97 a4 3e 32 0c 67 3e
       0.1355113 0.3253649 0.32146823 0.22563246
000390 a6 c2 19 3e b0 30 af 3d f3 73 ef 3e c2 55 2a 3e
       0.15015659 0.08554208 0.4676815 0.16634277
0003a0 eb dd 9d 3e 56 72 a8 3e 77 ed 39 3e 24 4d fd 3d
       0.30833372 0.3289973 0.18156992 0.12368229
0003b0 d9 81 b5 3e 43 a7 c0 ba 0b c0 6b 3e 9a 9b 11 3d
       0.35450628 -0.0014698285 0.23022477 0.035548784
0003c0 28 6b bb 3e 1a ff 87 3e e2 a5 31 3d e0 a9 22 3e
       0.3660519 0.26561815 0.04337109 0.15885115
0003d0 89 95 f5 3c 4b d1 d5 3e 25 21 a2 3d ca 57 ef 3e
       0.02997853 0.4176124 0.07916478 0.46746665
0003e0 d2 ed da 3e d9 35 aa bc c9 6a 72 3d 53 2d 2e 3e
       0.42759567 -0.02077763 0.05918387 0.17009477
0003f0 d4 d0 22 3e 1f 16 84 3e 3b 21 96 3a ce a1 4e 3e
       0.15899974 0.25798127 0.0011453995 0.20178911

lstm.bias_hh_l0 f4 [256]
000000 f1 da d5 bb 31 6a f2 3d af 24 b0 3d 34 55 55 3e
       -0.006526344 0.11836661 0.08600747 0.20833284
000010 25 72 2b 3e 8d f6 66 3e dd 21 a7 3d 00 e6 51 3e
       0.16742761 0.22554989 0.08160756 0.20497894
000020 60 a1 82 3d bc 54 57 3e 95 4a 31 3e 6b 43 f2 3c
       0.06378436 0.21028417 0.17313607 0.029573163
000030 0e 21 ed 3d 48 dc 50 3e 31 7d 6d 3e 7b 7f 9b 3c
       0.1157857 0.2039653 0.23192288 0.018981686
000040 ba e9 db bd 92 b2 3e 3e bc 2b fc bc 48 d9 06 bd
       -0.10737939 0.18622807 -0.030782573 -0.03292206
000050 61 a8 4e 3d ca c4 78 3d a5 7e 1c 3e 5a 1e 58 3e
       0.050453547 0.060734548 0.15282686 0.21105328
000060 0b 57 a2 3e 07 8b 09 3e 6f b1 6a bd c8 ab 8a 3d
       0.31707034 0.13431941 -0.05729812 0.06771046
000070 4b 82 d7 bd 8d 9c 1f 3e 4d cb 40 3d c6 b1 57 3e
       -0.10522898 0.15587063 0.047068883 0.21063909
000080 4a b1 bd bd 51 c1 20 3e bb 72 3f 3d b7 10 54 3e
       -0.09262331 0.15698744 0.046740275 0.20709501
000090 8b f4 35 bd a4 42 44 3d ca b3 c3 3e 2b d2 38 3d
       -0.044422667 0.047915116 0.38223106 0.045122307
0000a0 69 6a c9 3d 1a 52 01 3e 14 e9 c2 3c 12 24 d6 3d
       0.09834749 0.12628976 0.023792781 0.104560986
0000b0 81 85 13 3e e9 1f 01 bd b9 56 91 3d ec 34 d8 3d
       0.14406396 -0.031524573 0.07096619 0.10556969
0000c0 45 9b a9 3e d5 0a 98 3e a7 31 d3 3d b9 9a 03 3e
       0.33126274 0.29695764 0.10312205 0.12851991
0000d0 dd c7 c4 3d 62 d2 52 3e 4f 0f 96 3e ac e5 84 3e
       0.096084334 0.20588067 0.29308555 0.25956476
0000e0 e1 59 53 3e 08 a5 90 bd 66 3b e2 3c 1a df 55 3e
       0.20639755 -0.07062727 0.027616214 0.20885888
0000f0 93 f4 03 3e 60 20 89 3d 72 f2 d2 bb 72 37 30 3e
       0.12886266 0.06695628 -0.006437593 0.1720865
000100 4c 37 36 bd a7 c5 a8 3d fe 08 73 3e ca b4 62 3e
       -0.04448633 0.08240824 0.23733899 0.22139278
000110 06 2a d0 3d 7a 01 99 3e b2 92 d9 3d 4f d0 d3 3d
       0.10164265 0.2988394 0.10623683 0.10342466
000120 dd 14 28 bd eb 45 f5 3c d1 df 0a 3e 61 ef 51 bb
       -0.04103552 0.029940566 0.13561942 -0.003203355
000130 33 27 02 3e ac 2d 0f 3e ad 49 e9 bd 81 14 e4 3d
       0.12710266 0.13982266 -0.11391006 0.11136723
000140 b4 60 e8 bd 3e 75 48 3e 5d 98 0d 3e b9 c8 b0 3d
       -0.1134657 0.19575974 0.13827653 0.08632035
000150 26 ef 3f 3e e5 dc 69 bd f1 57 36 3e cc 40 84 3d
       0.18743572 -0.057095427 0.17806984 0.064576715
000160 34 bd 43 3e 0e ec 8c 3c d4 6a 16 3d 72 8d 79 3e
       0.19115144 0.017202403 0.036722973 0.24370363
000170 4f 9d 12 be b1 80 25 3e b4 61 56 3e 8d 58 26 3e
       -0.14317821 0.16162373 0.20935708 0.16244717
000180 24 d0 15 be b1 2e 5b bb 10 ab c3 3d ea 21 e6 bd
       -0.1463018 -0.0033444578 0.09554112 -0.11236937
000190 1d 0f 85 bd 70 5f c0 3d a6 61 fe 3c 5f 5c ef 3d
       -0.06497023 0.09393203 0.031052422 0.1168754
0001a0 02 4b e8 bd 92 02 64 3d f4 84 72 bd 20 79 9c 3d
       -0.113424316 0.055666514 -0.059208825 0.0764029
0001b0 6e 05 8c bc 36 41 e0 3d 5b 51 8c bc 57 d1 af bd
       -0.017092433 0.10949938 -0.017128637 -0.0858485
0001c0 46 4a 10 be a7 bf 6a 3d 35 66 7c 3d 2f b2 e8 bc
       -0.14090833 0.05731168 0.06162091 -0.028405277
0001d0 7f 32 b5 bc 58 5f 8a 3d 92 39 2d 3e 14 da 79 be
       -0.022118805 0.067564666 0.16916493 -0.24399596
0001e0 e0 0d 12 3d 61 64 0b 3c 10 f0 5b 3d d9 c0 aa 3d
       0.035657763 0.008507819 0.05369574 0.08337564
0001f0 18 fc b0 3d ab dc 1b be ba 1f 16 bc 0b e0 b7 bd
       0.08641833 -0.15220897 -0.009162838 -0.0897828
000200 2a e6 55 be 20 99 c4 3d 6b 8a a0 bd 35 52 a3 bd
       -0.20888582 0.09599519 -0.07838901 -0.07974664
000210 21 20 3c 3e e3 e1 5e bd ac ce 17 3e 7b c1 03 be
       0.18371631 -0.05441464 0.14824933 -0.12866776
000220 4b e2 de bd e1 95 2e be 11 0d ef bc 45 c2 42 3e
       -0.10883006 -0.17049362 -0.029181035 0.1901942
000230 6a 2b da 3d 5f 54 2d be aa 42 81 3d 86 08 eb bc
       0.10652812 -0.16926716 0.06311543 -0.028690588
000240 8c ab 33 3e cb 63 7b 3d f6 7a 0f bc ed 8a d5 bd
       0.17545909 0.061374467 -0.0087573435 -0.104268886
000250 54 30 e9 3d da ea 1c be 26 13 7f 3e 63 2d 5e 3e
       0.11386171 -0.15323964 0.24909648 0.21697001
000260 9f 4c ee 3d c7 51 51 3e 3f 74 8a 3d 25 e2 9b 3d
       0.11635708 0.20441352 0.067604534 0.07611493
000270 77 35 e3 3b 8b 77 1f be 3f 2c c9 3d 6d e0 9d 3d
       0.0069338637 -0.15572946 0.098228924 0.077088214
000280 15 17 00 be c6 b3 5f 3e e5 11 22 3d fc 91 08 3e
       -0.12508805 0.21845922 0.039567847 0.13336939
000290 f5 ae 06 3d d9 40 32 3d eb 02 64 be 95 24 6f bd
       0.032881696 0.043518875 -0.22266738 -0.058384497
0002a0 ad 03 f8 bb b6 96 1a be d0 db 12 3e 21 68 c3 3d
       -0.0075687976 -0.15096554 0.14341664 0.095413454
0002b0 94 53 da 3c 46 67 31 3e 77 d6 b8 bd 89 23 07 bd
       0.026651181 0.17324552 -0.09025281 -0.032992873
0002c0 19 d0 11 be 0e 74 3d bc bd d3 e0 3b 7c b3 e0 3d
       -0.14239539 -0.011563314 0.0068611787 0.10971734
0002d0 91 03 c2 3d 23 15 c8 3d 5b 84 8a 3e f1 79 91 3c
       0.094733365 0.097696565 0.27054104 0.017758342
0002e0 94 ec 13 be be 4b c5 bc db a7 f5 3d 12 64 48 3e
       -0.14445716 -0.024083968 0.119949065 0.19569424
0002f0 ca a9 82 3d bd 3f 19 3e 46 00 21 bd 56 47 3e bd
       0.06380041 0.1496572 -0.0393069 -0.04645475
000300 ad cf 3f 3e 64 ad 4d bb bc a2 94 3e e9 bf 98 3e
       0.18731566 -0.0031383866 0.29030406 0.29833916
000310 cb 5e c7 3d 44 5d af 3d 06 2d 3f 3e 35 90 a2 3e
       0.09734877 0.08562711 0.18669519 0.31750646
000320 8c 22 31 3e 39 ae 4a 3e f2 56 88 3d cf f3 4b 3e
       0.17298335 0.19793023 0.066572085 0.19917224
000330 66 7c 87 3e 72 bd 36 3e 19 72 9d 3e 4f b1 ae 3c
       0.26462096 0.17845705 0.30751112 0.021324782
000340 5d 99 19 3e e1 71 ba 3e 5e 9c 59 3e 47 f5 c0 bd
       0.1499991 0.36415008 0.21251056 -0.09421783
000350 b8 6d 97 3e c9 61 9b 3e 6e 65 4a 3e 22 bc cb 3d
       0.29575896 0.30348042 0.19765255 0.09947993
000360 6d d6 75 3d 5c 47 77 3e f8 aa 0c 3e 4e 31 70 3e
       0.060018945 0.24148315 0.13737094 0.23456308
000370 5d 19 85 3d e2 c0 87 3e 43 0f 0c 3e 6f d7 0d 3e
       0.06498978 0.26514345 0.13677697 0.13851713
000380 99 be 8d 3c ac b5 95 3e 9e 20 60 3e 1e 85 a6 3d
       0.017302798 0.29240167 0.21887442 0.08130859
000390 e7 46 16 3e c7 a0 a4 3d d7 dc f2 3e 82 2a a3 3e
       0.14675485 0.08038478 0.47434112 0.31868368
0003a0 08 28 64 3e c7 bc 96 3e bc 7d 44 3e a8 f3 4f 3e
       0.22280896 0.294409 0.19188589 0.20307791
0003b0 48 ed 97 3e fd e0 9f 3d f6 4c 59 3b 20 16 82 3c
       0.2967322 0.07806585 0.0033157445 0.01587969
0003c0 9d 07 8f 3e 8b b4 b2 3e 04 63 82 3e 16 33 77 3e
       0.27935496 0.34903368 0.25466168 0.24140581
0003d0 7b 96 0d 3e 97 da ba 3e 64 dc a7 3d 3a 25 8e 3e
       0.13826935 0.36494896 0.08196333 0.27762777
0003e0 76 94 48 3e 06 68 24 bb ac 3c 03 3e 59 cb b4 3d
       0.19587883 -0.0025086417 0.12816113 0.08827848
0003f0 de 7f ad 3d 8c 23 ae 3d 00 e9 d5 3d 41 8e ac 3e
       0.08471654 0.08502874 0.10444832 0.3370228

fc.weight f4 [22, 64]
000000 33 f6 19 be e5 bc e4 be 1d fb ba 3d 07 4b 2a 3e
       -0.15035324 -0.44675365 0.09129927 0.16630183
000010 dc 64 db 3c 0e 9b a7 3d e6 0c 8c 3c a6 0b b1 3e
       0.026781492 0.08183871 0.017095994 0.345792
000020 88 ef 84 be 5b bc 55 be 9e ef a5 3e c9 d7 31 3e
       -0.25963998 -0.20872633 0.32409376 0.17367472
000030 bc 8b cf be df be 58 be a8 63 5f 3f cd cb 7e bd
       -0.40536296 -0.21166562 0.8726144 -0.06220608
000040 b7 1a a2 be d6 fb 34 bd 2e 81 63 3e 87 58 9d 3e
       -0.31661007 -0.044185482 0.22217247 0.30731604
000050 ae 12 97 bd 04 e1 e6 bd 0f 90 10 bf db c1 c8 bd
       -0.0737661 -0.11273387 -0.56469816 -0.098026
000060 da 83 b0 be 86 7b cb be 05 2f 6d 3e 8f d0 6d be
       -0.34475595 -0.39742678 0.23162468 -0.2322409
000070 c1 a2 fd 3e 4e 6e bc bc 76 d4 85 bd 4b aa 1a 3d
       0.49538234 -0.023001816 -0.06534664 0.03776006
000080 61 b2 eb be a6 6e 47 3d 3b 20 7f 3e 31 fd cb 3e
       -0.4603453 0.048689507 0.24914639 0.39841607
000090 8f 0f 8e 3e 9a 87 47 3e eb f5 70 be ba 66 f6 3d
       0.27746245 0.19485322 -0.2353131 0.12031312
0000a0 b5 25 c5 be 1c 99 0a be 1a 9b 90 3f 22 93 03 bf
       -0.3850533 -0.13534969 1.1297333 -0.5139638
0000b0 a9 4b dd 3d d3 1a 05 bf 2b 20 77 3d ab 36 4c be
       0.10805447 -0.51994056 0.060333412 -0.19942729
0000c0 24 a5 c4 be 03 ea 39 be 22 be 91 3e 64 2c 05 be
       -0.38407242 -0.18155675 0.28465372 -0.13005215
0000d0 8c 62 28 be b1 cc 0f be 57 d3 f2 3c c1 fe 8e 3e
       -0.16443843 -0.14042927 0.02964179 0.27928737
0000e0 3b 73 96 3e 54 be 17 3e 6a 30 b0 be 46 93 83 3d
       0.2938479 0.14818698 -0.34411937 0.064245746
0000f0 f9 64 a6 bd 41 49 ae 3e 2d 70 ea 3d 4e 7c 4b 3f
       -0.08124728 0.34040263 0.11447177 0.7948655
000100 2b d5 fd 3d 82 7f df 3e b6 b4 5e be 0f f9 2b 3e
       0.12394174 0.43651968 -0.21748623 0.16794227
000110 d3 04 6c be 3c 82 e7 3d 8d 87 f9 be fd 4b bf 3e
       -0.23048715 0.11304137 -0.4873623 0.37362662
000120 5f 0c 9f 3c 1a 0d 9a bd 3f ba 99 3d ef a1 8d 3e
       0.019415079 -0.0752203 0.07506227 0.27662608
000130 77 61 a4 be f1 6a 79 3e 90 4e a6 3d 81 35 a0 bd
       -0.3210561 0.24357201 0.08120453 -0.07822705
000140 a9 02 dc 3e e0 97 fd bd 00 01 db 3d 15 16 d5 3e
       0.4297078 -0.123824835 0.1069355 0.4161841
000150 0b 23 69 3d cf fa 1a be 66 c1 f3 3e 16 c5 48 be
       0.056918185 -0.15134738 0.4760849 -0.19606432
000160 2d 2f d3 be 39 c9 0b bf 6c 09 9c 3e 4c cc 00 bf
       -0.4124693 -0.54603916 0.30475938 -0.5031173
000170 45 33 f1 be b5 79 ee bd 97 79 27 3e c3 5a 79 3e
       -0.47109428 -0.116443075 0.16354977 0.24351029
000180 fd 3c 9b 3e ee 08 85 3e 5c 39 ad 3d 2d a2 c1 bd
       0.30319968 0.25983375 0.08458206 -0.09454761
000190 7c 2e 81 3e 25 39 e1 bd 7e 19 9e be c9 d1 f9 3c
       0.25230777 -0.109972276 -0.30878824 0.030495541
0001a0 a8 ab 9e 3e 5c cb a6 bd a4 82 d0 3e d1 2f 43 be
       0.30990338 -0.081442565 0.4072467 -0.1906121
0001b0 77 26 a7 3e b8 13 da 3e 18 1e 5d 3e 4a 4c 36 be
       0.32646534 0.4259317 0.21593511 -0.1780254
0001c0 18 01 d8 be a8 21 55 be 55 66 cb be d5 7f eb be
       -0.42188334 -0.2081362 -0.3972651 -0.45995966
0001d0 a1 d0 f7 bd ac 7f ac 3e 13 92 39 be cb 3b b2 3e
       -0.1210034 0.33691156 -0.18122129 0.34811243
0001e0 b1 ab 87 be e8 dd 98 3e 65 44 bd be 7b 0d 8e bd
       -0.26498178 0.298568 -0.36966243 -0.06936165
0001f0 6b ae 09 bf 88 c7 10 bf 75 4c 82 3e 63 94 cb be
       -0.53781766 -0.5655446 0.25448957 -0.39761648
000200 b1 68 c6 bd 56 30 d8 3d cc 70 a7 3d 19 b7 83 3d
       -0.09687937 0.10556094 0.08175811 0.064314075
000210 2b 10 4f 3e 37 6c c0 be b8 bd 77 3b ac ab b2 bd
       0.20221011 -0.3758256 0.003780229 -0.0872415
000220 22 c3 dd be b9 35 84 3d 8a 10 b0 3d fe 23 75 3e
       -0.43312937 0.06455559 0.085969046 0.23939511
000230 c4 76 0e 3d 2f 57 17 bd 54 a0 d4 be 88 89 98 3e
       0.034781232 -0.03694838 -0.4152857 0.29792428
000240 6f e8 87 be 1a 7a a8 bd 6a 7a 3e be da 98 7c be
       -0.2654452 -0.08226414 -0.18601385 -0.24667683
000250 93 65 4b 3d f0 9e 04 bf 77 6e 3f 3e 1c be 2f 3d
       0.049657416 -0.5180502 0.18694483 0.04290591
000260 79 ef 92 3e 51 bd 46 bd d3 b0 06 bc 8e 66 95 bc
       0.28698328 -0.04852039 -0.008220869 -0.018237378
000270 8e 0a 1b 3e 07 9e 53 bd 72 b3 6b 3e 0c cb 8e 3e
       0.15140745 -0.05166438 0.23017672 0.27889287
000280 5e e7 ae be 47 a3 7f 3e b1 e8 d4 be b3 86 e7 3c
       -0.34160894 0.24964629 -0.4158378 0.028262472
000290 1e 33 10 bf 65 75 83 be 9f 78 ac bd 82 3d 2f 3d
       -0.56328 -0.25675502 -0.08421444 0.042783268
0002a0 03 17 25 bf 93 dc 11 be d1 d9 a1 be af b7 52 3e
       -0.6448824 -0.14244299 -0.31611493 0.20577882
0002b0 b1 11 77 3e a0 b8 f4 3d 5e 95 db 3e b4 2b 3a be
       0.24127842 0.11949277 0.42887396 -0.18180734
0002c0 5c d4 a9 be 26 99 bc bd 46 9b 20 bd 2a ae 91 3d
       -0.3316983 -0.09208898 -0.03921058 0.07113297
0002d0 36 09 89 be ef 03 31 3e b6 07 51 3d 49 1f 52 bd
       -0.2676484 0.17286657 0.051032744 -0.051299367
0002e0 ca bc 6b bd 7d 86 5d bc 44 0a 06 3d 41 3a 1e 3e
       -0.05755309 -0.013520834 0.032724634 0.1545191
0002f0 72 70 5e 3e f0 16 9e 3e 43 99 7d be c9 eb 82 be
       0.21722582 0.30876875 -0.24765496 -0.25570515
000300 aa c9 25 3d 75 09 f3 3d 8a 84 7c 3d 33 5e 33 3e
       0.040475525 0.11867038 0.061649837 0.17516403
000310 43 d5 4a be 56 2f 98 bd 91 66 92 3e 17 43 ef 3c
       -0.19807915 -0.074309036 0.28593877 0.029206796
000320 33 93 84 be 54 70 76 be f6 71 dd 3e 67 ab c4 3c
       -0.25893554 -0.24066287 0.43251008 0.024007512
000330 d0 f1 89 3d 42 a7 43 3d 17 8a 9b be 0c 52 32 3f
       0.06735575 0.04776693 -0.30378792 0.69656444
000340 12 8d 8e 3e 42 ac c6 be 06 8c cb be 65 58 15 3f
       0.27842003 -0.38803297 -0.39755267 0.58338004
000350 a3 e9 ae 3d d6 db a3 3e 09 81 bc 3d 41 d5 93 be
       0.085406564 0.3200366 0.09204299 -0.28873637
000360 dc e4 6f 3e 08 da a8 bd f8 81 6f bd 96 2f 71 3d
       0.23427147 -0.08244711 -0.058473557 0.058883272
000370 0b 1a c4 be dc 82 c5 be e0 82 6d bf 28 01 cf be
       -0.3830112 -0.385764 -0.92777824 -0.4043057
000380 1e 3f d7 3e 9b 8c a6 3e ab 3e cd be 08 7b 5c 3d
       0.42040342 0.32529148 -0.40086874 0.05382827
000390 cf 2a db 3d 39 a5 1b 3e 7d 2c 68 bf 3d 29 10 3e
       0.107015245 0.15199746 -0.90692884 0.14078231
0003a0 2e ed fe 3d 0a e0 58 be 4b fb 39 3e b3 ad 2b 3e
       0.12447582 -0.21179214 0.18162267 0.1676548
0003b0 9b 11 a1 3e 74 e8 20 be 82 58 62 be cc b0 b1 bd
       0.31458744 -0.15713674 -0.22104076 -0.086762995
0003c0 a5 16 b3 3e fb 3b fb bd 37 67 96 be cc 50 be 3d
       0.34978214 -0.122673 -0.29375622 0.092927545
0003d0 4e e8 78 3c 53 23 1e 3e c6 f1 10 be 4b 32 07 bf
       0.0151921045 0.15443163 -0.14154729 -0.52811116
0003e0 c4 9c 67 be bd 80 81 be 4a d1 d6 3d b2 df 8e 3e
       -0.22618395 -0.25293532 0.104891375 0.2790504
0003f0 85 38 4c 3c 07 7f 00 be 38 3f 78 3d b4 5d 00 be
       0.012464647 -0.12548457 0.060607165 -0.12535745

fc.bias f4 [22]
000000 4a 0a af bd 33 ac af 3d 43 c9 a5 3c d6 97 1d be
       -0.08546884 0.08577766 0.02023757 -0.15389952
000010 63 f4 14 3e 49 15 c2 bb 5c d5 65 3d d7 20 1b 3e
       0.14546351 -0.0059229475 0.05611168 0.15149246
000020 d7 a4 c7 bd 62 a8 52 3d e8 51 fe bd a6 56 21 bc
       -0.097482376 0.051430114 -0.12417966 -0.009847319
000030 5e ef 80 bd 4c 5c 11 3c ea 33 e0 bd 59 01 ca bc
       -0.06295656 0.008872103 -0.10947402 -0.024658846
000040 dc 03 33 bc 8e cf d3 bd 6a 76 00 3e f3 3f cd 3a
       -0.010926213 -0.10342322 0.12545171 0.0015659317
000050 4a 27 53 bd 5b e7 29 bd
       -0.05155114 -0.041480403
