models/lstm_model.pth (torch, 215977 bytes, 10 tensors)

lstm.weight_ih_l0 f4 [256, 7]
00000000: a440 89bb c006 a0bd 5d00 a23e 11be 3f3e
00000010: 1a96 d23e 9c6a 0f3c 21ca 0a3e 8c75 7abe
00000020: 4594 05be c1a0 00bf 0257 d53e 3765 663e
00000030: 8bce 5f3e 60b3 9cbe 90ae 07bd 7191 a53c
00000040: d480 cf3e 9e3b b7be aeec 843d a1a3 0bbe
00000050: e8f9 483e 86d8 773b 2a1f 3d3e 0464 3abe
00000060: ed42 03be 9e8d 5dbe c227 f2be 1f77 853e
00000070: d035 69bc 384a 7a3e 482a 733e 87a1 c4be
00000080: 92e4 3ebe b9ba 003c 4ddf f7bd 7f20 c1bd
00000090: 041c 743e cda2 93be f08d a9be a7f9 ddbd
000000a0: 6e74 67be fddb 743b c09e a53e b63f 0ebe
000000b0: a803 e2be 257b 7bbe e8a0 c8bc 2f6f 423d
000000c0: e8d2 8b3e a23d d7bd 63c2 673e a1a0 fb3d
000000d0: 66a1 f9bc de39 933e 5c23 1abd f23e cc3e
000000e0: 4ab8 373e 6d72 093e 5b40 bc3c 84f6 d63d
000000f0: d37d c63e a750 a13e 5da3 ebbd 0797 c53d
00000100: f145 cabd 1167 003d 3ec4 793c 4fee 01be
00000110: 8187 ebbd 58c8 2d3e 8565 02be 6329 67be
00000120: f1e5 ecbe 1872 5cba af93 a2be 09c3 11bd
00000130: 9a2c 98be 1d5b 063e e9a0 d8be 3796 c4be
00000140: 717f 993d f942 de3e 97c7 e73c 9400 63be
00000150: fdd9 5a3d a2c9 64be fe2f 41be ec7f 373e
00000160: eac0 53be 5bd8 4a3d ab27 ca3d dc9b d0bc
00000170: f89d 18bd 5cb1 6abe 524f 753d de61 b1bc
00000180: 88e5 0fbd d940 8b3c bd6d ab3a b563 d33e
00000190: ba9e 273c c2ae 293e 745e e0bd e52d 73b8
000001a0: 4ad3 07be c35e cbbe e3f4 af3d efbd 8cbd
000001b0: 0d24 ddbe 803a 5fbe ae24 ffbd 0943 eebe
000001c0: 8433 933e 728a c6be cd6d 3bbe dcd1 0fbe
000001d0: b401 153e 9b3c afbd 2593 9f3e 1fa9 373e
000001e0: cf99 dabd e90f 4abe 24aa 373e 4d7c bebe
000001f0: ea29 973c 77d7 203d 24cd 9c3e 3753 36be
00000200: fb64 87be 453a a2be 8ea4 bfbd 1e83 953e
00000210: 5c69 323d 2164 bdbe 6bf3 d73d 18d2 053f
00000220: 6d96 b93a f5e2 66be 0e03 e2bb 6f06 bf3e
00000230: 196a a8bd 3a17 2abd 2620 493d cab8 ccbe
00000240: f338 803e 2d79 b9bc 7c85 d03e a860 683e
00000250: 0dae 30be b2d0 d6be fffa 9bbe 71b8 04be
00000260: 1ee9 e63d 349e c1be 96d9 a83e 1457 60bd
00000270: d836 803e 769f b4be 8f8e d83e a5c3 23be
00000280: f229 acbc 7cd3 8abe 8e83 83be 2bbc 0dbb
00000290: 8d18 1b3e 9321 b13e 066a 1dbe 279a bebe
000002a0: dfd6 783e 48cf 93bd f397 e2bd 14ef 91bd
000002b0: e443 35be 7a7a 253c 7bbc bfbe a874 b93e
000002c0: 5575 cbbe 5e82 eebe 9cc9 20bd 65bd b0be
000002d0: f715 a2bd 8721 94be 75aa d9be 8b98 a8be
000002e0: 6005 91be 09c8 3c3c 0592 81bd dbb9 20be
000002f0: 4223 db3d 685f 7cbe bfe3 4bbd cf3e 43bd
00000300: 5c9f 64be ad08 45bd 9923 883e 9c28 063f
00000310: c89e 173e 2c1b 54be b792 eebe a0cf 853d
00000320: 6807 8cbd 046f 093c d7e0 86be 7158 623e
00000330: 5e3c b63e f51b e53d e59a 74bd c85e 85bd
00000340: 021e 4f3a f235 2a3d 875f b2be 7068 9c3e
00000350: 0ddb cf3d 5f53 123d 41a0 78be 8495 d2bd
00000360: dea8 eebe f8f7 7fbe e03c 263e e79a 97bc
00000370: 682b cabe 5b31 19be a60d e63c d847 94be
00000380: c458 93be e932 f6bd 2e31 d33d 9587 18be
00000390: 12cc d73e bf5c 2abe 7d1b 8e3d 6074 103e
000003a0: 5555 9a3e 7cbd 01be c90e 97bd 58c8 a33e
000003b0: a4ad 323d 851c 69be 59ee af3e e96e c0be
000003c0: ba20 76be 8eb5 783e 71dd 973e f4e1 6c3e
000003d0: 6240 0c3e a812 a4bd 8323 a03e a8fe 90bc
000003e0: c6dd 9f3e d5c1 7d3e 7994 4e3d 85fd 8dbe
000003f0: 8148 e93d f142 603e 43c2 6e3c 70e3 093e
-0.004188614 -0.078137875 0.31640902 0.18724848 0.41130143 0.008753445 0.13553669 -0.24458903
-0.13044842 -0.5024529 0.41667944 0.22499548 0.21856134 -0.30605602 -0.03312546 0.020210953
0.40527976 -0.35787672 0.064904556 -0.13636638 0.19626582 0.0037818267 0.1846892 -0.18202215
-0.12818499 -0.21636054 -0.47295958 0.26067445 -0.014234021 0.24442375 0.23746598 -0.38404486
-0.1864188 0.007857018 -0.12103138 -0.09430026 0.23838812 -0.28835145 -0.33116102 -0.10838633
-0.22603008 0.0037362569 0.3234768 -0.13891491 -0.44143414 -0.24558695 -0.024490789 0.047469314
0.27309346 -0.105098024 0.22632746 0.12286497 -0.030472469 0.28755087 -0.037631378 0.39891773
0.17941394 0.13422556 0.022979906 0.10496238 0.3876787 0.31506845 -0.115057684 0.09647947
-0.098766215 0.03134829 0.015244542 -0.12688564 -0.11500455 0.16970956 -0.12734039 -0.22574382
-0.4626918 -0.0008409335 -0.317533 -0.03558639 -0.29721528 0.13120694 -0.42310265 -0.38395855
0.07495011 0.4341047 0.028293414 -0.2216819 0.053430546 -0.22342542 -0.18865964 0.17919892
-0.2067906 0.04952274 0.09870847 -0.025464945 -0.037260026 -0.2291922 0.0598901 -0.021653112
-0.035131007 0.016998695 0.0013078969 0.41287008 0.010230714 0.16570571 -0.109555155 -5.7978457e-05
-0.13264194 -0.39720735 0.0859163 -0.068721645 -0.43191567 -0.2179966 -0.12458168 -0.4653552
0.2875024 -0.387775 -0.18303604 -0.14044899 0.14551431 -0.085564815 0.3116695 0.17935608
-0.10673868 -0.19732632 0.17935997 -0.3720421 0.018452603 0.039267983 0.3062526 -0.17805181
-0.2644423 -0.3168508 -0.09357558 0.29201597 0.04355751 -0.36990455 0.10544475 0.522737
0.001415921 -0.22547515 -0.006897337 0.37309596 -0.082233615 -0.041526057 0.049102925 -0.39984733
0.2504345 -0.022640789 0.4072684 0.22693121 -0.17253895 -0.41956097 -0.30464932 -0.12960984
0.11274932 -0.37816012 0.32978505 -0.054770544 0.25041842 -0.3527791 0.42296264 -0.15992601
-0.021016095 -0.27114475 -0.25686306 -0.002162705 0.15146084 0.34595928 -0.15372476 -0.37226984
0.24300717 -0.0721727 -0.11064138 -0.07125679 -0.1770168 0.0101000015 -0.37448487 0.36221814
-0.39737955 -0.46583837 -0.03925477 -0.34519497 -0.07914346 -0.2893183 -0.4251286 -0.3292888
-0.28324413 0.0115223015 -0.06326679 -0.15695898 0.10700084 -0.2464577 -0.049777742 -0.04766732
-0.22326416 -0.048103977 0.2658966 0.52405715 0.14806664 -0.2071349 -0.4659631 0.06533742
-0.0683735 0.008388285 -0.26343414 0.2210405 0.35592932 0.11186973 -0.05971803 -0.06512219
0.0007900895 0.041555353 -0.34838507 0.3054843 0.101492025 0.03572404 -0.24279882 -0.10282424
-0.4661321 -0.24996936 0.1623416 -0.01850648 -0.3948624 -0.14960234 0.02808268 -0.28961062
-0.2877866 -0.12021429 0.10312115 -0.1489547 0.4214788 -0.16636942 0.06938837 0.14106894
0.30143228 -0.12669939 -0.07375867 0.31988788 0.043622628 -0.22764786 0.34361532 -0.37584618
-0.24035922 0.24288008 0.29661134 0.2313307 0.13696435 -0.08011371 0.31277093 -0.017699555
0.31223887 0.24780972 0.050434563 -0.27732483 0.11390782 0.21900536 0.014572683 0.13465667

lstm.weight_hh_l0 f4 [256, 64]
00000000: be78 fbbd c022 433d c048 26bc a284 de3d
00000010: 6091 b1bb 681d 4ebd f880 1dbd a8ca 98bc
00000020: b00f 013c 8a5a 8abd 30e9 2a3c 6c59 0fbd
00000030: 8ad2 d3bd cc3e 043d 8e6c f5bd 60e6 bcbb
00000040: b844 eb3d fe06 c83d 9853 ec3c c0a9 bc3b
00000050: 681e 883d 86ed c23d 4c7f fd3d 0093 193c
00000060: f4a9 c9bd 1c6d b83d b28e fd3d 1ea8 973d
00000070: eadc 9b3d a06d cc3c 2067 4fbc b2bc b0bd
00000080: 40f2 a63b 70c2 963d b0ba 713c b425 633d
00000090: cc09 ba3d 0002 2d3d e819 fa3c 6097 0dbc
000000a0: a0e8 a5bd 64fb cbbd 587f 2fbd 603f 623c
000000b0: b430 8bbd fc11 d63d e8fd 35bd 3800 e63c
000000c0: 64c8 fe3d 28bd af3c 8816 b43d 9e40 ef3d
000000d0: 3ed6 82bd c0de a2bb e8ec 943d eaed bc3d
000000e0: 70e4 e63d b4eb eebd c008 5bbb 48b4 20bd
000000f0: 500a a1bc 38f5 833d f452 c33d a0af 26bc
00000100: 988f a13d 461a 8f3d 00d2 ba3b 72fb b8bd
00000110: 84ab 7f3d bc52 f3bd 728e d2bd aed7 87bd
00000120: d893 9b3c b033 90bc 50ea e33d 5052 2c3c
00000130: a8f0 d53d 589a 303d 80ba a83d 8412 b1bd
00000140: 00a6 aebc c20e afbd b03b d9bd 8011 a6ba
00000150: 10fc d13c b09c 333c 1e1e b13d 8e88 dd3d
00000160: 40dc 2ebb 7049 a63d f09f 063c f03c 32bc
00000170: 0cdd b83d dc03 ce3d d042 fe3c 5c86 edbd
00000180: 9045 603c 6064 a8bd c0d2 c1bb e03f d73c
00000190: 44ef a9bd 2ce6 cd3d 3017 a13c 5435 823d
000001a0: 7414 b8bd 2ee2 d9bd 4eab 8e3d 2260 e53d
000001b0: 3a22 903d ca05 fc3d 32e1 ed3d 4416 88bd
000001c0: 5256 803d 96be d03d 48db 04bd 40f1 c1bd
000001d0: e4e2 543d f0b3 0e3d d833 e6bc d058 d0bc
000001e0: 9083 e4bc 4074 c63b 8809 ef3c 60a3 893c
000001f0: 8280 b13d 0066 cebd 9044 26bd 385e 0dbd
00000200: 421a b93d a8c1 e4bc 402b 373b 7cd9 f53d
00000210: 002e a1bd 0843 0e3d f0b7 0d3c a41b e63d
00000220: 1815 b6bd 789a 50bd bca7 98bd 68fa e93c
00000230: 782e 683d f463 ecbd d4a1 f6bd 3c7f 763d
00000240: c479 c5bd 203a 8abb 70b5 edbc 4085 3cbc
00000250: c67a 8c3d 38a5 cebc 32dd b13d 6c27 74bd
00000260: 60fe a1bc a08a bebb a893 443d d81c f4bc
00000270: a06a 983d c0b4 c63b 20b8 fa3d cc95 113d
00000280: e03e dbbc 285e 9c3d ec8c 44bd 4076 d93d
00000290: 9cb1 0cbd 14f4 ba3d 4057 52bc 5021 963d
000002a0: 98ad 4b3d b0b6 693c 28a5 59bd f860 423d
000002b0: dae3 b3bd fe90 c63d 8074 d83c ac70 9a3d
000002c0: bc77 233d 92e7 a8bd 60bf a23b 80e3 6d3d
000002d0: 9245 c7bd 7098 cbbd 847f 803d 72e8 c0bd
000002e0: c047 36bd f88d 843d 96b4 d1bd 0ae5 c43d
000002f0: 44a8 f9bd 706c 07bc 18ed 363d 82b2 9b3d
00000300: 8062 0ebb 6019 25bd 0a22 e2bd 3460 fa3d
00000310: 8a81 99bd 9c42 cebd fc6e 3cbd 48a2 91bd
00000320: 621e cdbd 1800 a43c 90f8 6cbc 0e69 babd
00000330: 500e 8c3c be28 e9bd a4fb f53d fc79 343d
00000340: b066 04bd 66e4 dfbd 285b b5bd bade b63d
00000350: 0c3d e13d 40ff 883c 2cd7 623d e8d2 fd3d
00000360: 9009 24bd bc0c 85bd 5aea 903d 94d6 3f3d
00000370: 6046 89bd fcf7 fe3d 5ceb 65bd a8b0 bebd
00000380: 8c8a d73d 401c 023d 484b 903c 80c2 f8ba
00000390: f0c4 1fbc f8b9 3abd 9037 89bd e093 bb3c
000003a0: 567e 8b3d 18b8 143d c2cc 963d 38c7 8d3d
000003b0: 386f ca3d be7f f7bd 58d1 913d a8a7 5cbd
000003c0: 3cfe 81bd a2f4 f7bd d40e 98bd 70e9 a03d
000003d0: 20dd a6bc 146e b7bd 4c6f babd 70fd 2f3d
000003e0: c02b 323d c090 7e3c 7075 46bd 3e80 e83d
000003f0: 84c2 4ebd 882e f33c c23a d13d 3482 793d
-0.12278889 0.047640562 -0.010149181 0.108651415 -0.0054189414 -0.050321013 -0.038453072 -0.018651322
0.007877275 -0.0675555 0.010431573 -0.03499739 -0.103428915 0.03228645 -0.11983596 -0.0057647675
0.114877164 0.09766959 0.028848454 0.0057575405 0.066464245 0.0951796 0.123777956 0.009373426
-0.09846869 0.09005186 0.123807326 0.07405113 0.076104954 0.024954617 -0.012658864 -0.08629741
0.0050947964 0.07361305 0.014753982 0.05545588 0.090839 0.042238235 0.030529931 -0.008642048
-0.0810101 -0.09960058 -0.042846054 0.013809055 -0.06796399 0.10452649 -0.044431597 0.028076276
0.12440565 0.021452501 0.0879336 0.116822466 -0.0638852 -0.0049704015 0.07271749 0.09225066
0.1127404 -0.116660506 -0.0033421963 -0.03923443 -0.019658238 0.06443256 0.095373064 -0.010173708
0.078887165 0.06987433 0.0057013035 -0.090323344 0.06241943 -0.11881015 -0.102810755 -0.066329345
0.018991396 -0.017602772 0.11128676 0.010517672 0.10446292 0.043115944 0.08238697 -0.0864611
-0.02131939 -0.08547737 -0.106070876 -0.001267001 0.025632888 0.01096265 0.086483225 0.10817061
-0.0026681572 0.08119476 0.008216843 -0.010878786 0.09026536 0.1005933 0.031037718 -0.11597893
0.01368846 -0.0822227 -0.005915016 0.026275575 -0.082975894 0.100536674 0.019664377 0.06357828
-0.08988276 -0.106388435 0.069662675 0.111999765 0.07037778 0.12305792 0.11615218 -0.06644872
0.06266464 0.101926014 -0.032435685 -0.09469843 0.051974192 0.03483957 -0.028100893 -0.025432974
-0.027894765 0.0060563385 0.02917935 0.016801536 0.08667089 -0.10078049 -0.04059273 -0.034513682
0.090382114 -0.027924374 0.0027949363 0.120043725 -0.07870102 0.034731895 0.008649811 0.11235741
-0.08890742 -0.050928563 -0.07453868 0.028561786 0.05668494 -0.11542502 -0.12042585 0.060179934
-0.096423656 -0.004218355 -0.02901718 -0.011506379 0.06859355 -0.025225267 0.08684768 -0.059607908
-0.019774616 -0.005814865 0.04799238 -0.02979891 0.07442212 0.0060640275 0.1224215 0.035543248
-0.02676338 0.076351464 -0.047985956 0.106182575 -0.03434907 0.091285855 -0.012838185 0.073305726
0.0497261 0.0142647475 -0.05313602 0.047455758 -0.087836936 0.09695624 0.026422739 0.07541022
0.03990911 -0.082472935 0.0049666613 0.05807829 -0.09730066 -0.099411845 0.06274322 -0.094193354
-0.04450202 0.06472391 -0.10239522 0.09613998 -0.12190297 -0.0082656 0.044659704 0.07602407
-0.002172619 -0.040307403 -0.11041649 0.122253805 -0.07495411 -0.100712985 -0.04600428 -0.07111031
-0.10015561 0.020019576 -0.014463559 -0.09102069 0.017096668 -0.11384724 0.12010887 0.044061646
-0.032324493 -0.109322354 -0.08855277 0.089292005 0.10997972 0.016723275 0.055380985 0.12393743
-0.040048182 -0.064965695 0.07075949 0.046835497 -0.06702876 0.12449643 -0.05613266 -0.09311038
0.105244726 0.031765223 0.017614022 -0.0018978864 -0.009751543 -0.04558751 -0.06700051 0.02289766
0.06811206 0.036308378 0.07363273 0.069227636 0.098844945 -0.12084912 0.07120007 -0.053870827
-0.063473195 -0.12107207 -0.07424703 0.07857025 -0.020369112 -0.089565426 -0.091032594 0.042966306
0.043498755 0.015537441 -0.04845184 0.11352585 -0.050478473 0.029685274 0.10216285 0.060915187

lstm.bias_ih_l0 f4 [256]
00000000: d6d9 d93e 8954 d83e 7828 0e3f a9de e73e
00000010: ff22 113f 9651 0f3f 6bac 023f 04bc e53e
00000020: 1d01 173f c1ce d33e d98d e63e 3da9 ee3e
00000030: bee9 0b3f 5fd2 003f c8d0 c53e 1b15 983e
00000040: defc c73e eec2 083f bf8c 053f 89f4 f33e
00000050: 459d 0b3f 3e1e 033f e328 b63e 0053 e13e
00000060: 2465 ba3e 1f7b dd3e 0317 113f 8a03 e03e
00000070: c42e 143f fc22 1b3f 7d4b e83e 6188 e33e
00000080: 0c68 e53e 5ecd 203f 1d42 093f e2b6 123f
00000090: 78d1 c63e 7299 c23e a9f1 da3e 5604 073f
000000a0: c269 ff3e f9e3 f73e 0f49 c73e 22e9 cc3e
000000b0: f32f 023f dab1 e73e 08ba dd3e ef47 083f
000000c0: 5040 bb3e 1013 003f 8c3a bd3e 476c 113f
000000d0: d685 163f 9bc1 043f c1e4 f03e 2d60 bd3e
000000e0: 9d66 f93e 5dbd 0a3f 1007 d53e e45b e83e
000000f0: 5457 b63e 4c94 cc3e eba1 fc3e 41d8 bd3e
00000100: d8a4 ebbd a0a4 5dbd 30fd 883d 80d9 ad3c
00000110: 7086 603c b84f 88bc 3847 d93d 9a37 cc3d
00000120: 184c 843d 3037 733c bc40 24bd e882 163d
00000130: 888d 5e3d 9ee6 e53d 7467 223d e048 6e3c
00000140: 60cb 1fbc 5c74 09bd 50a6 8dbc f695 e3bd
00000150: a8fe 023d 30df 8bbc 12a6 c2bd 5cc7 483d
00000160: 1c35 ea3d 9c5c e4bd 38f9 1d3d 0e10 ffbd
00000170: 78ac c9bc c495 12bd 40b0 3a3b 6478 16bd
00000180: e0a7 623c 8030 89bd 50d2 f9bc deb9 9ebd
00000190: 7894 ebbd d079 5e3d be14 d53d 6069 bc3d
000001a0: 287f 5fbd 90cc ad3d 8eeb ddbd dc6f 93bd
000001b0: a6e7 f93d defa 873d e083 d4bd a0d6 d53c
000001c0: ac6c ba3d a88e 673d e037 25bc 4630 c6bd
000001d0: f8fc 73bd bca2 2cbd a652 cabd be41 96bd
000001e0: 14a5 f3bd 46e1 b8bd 5443 08bd 7a39 e9bd
000001f0: 9a5d ecbd a6e7 d93d 6209 d73d d8c7 9ebd
00000200: ce50 f33e d6c3 3fbe 4acc d0be ad80 c8be
00000210: 8d99 763e 8c6f 5fbe dc49 d53e f6bb c53e
00000220: a407 12bd fa08 d1bd 9fdc 8bbe 9102 973e
00000230: 9a08 61be c0f1 0fbd 0fdd 99be e172 bb3e
00000240: a7cc 91be 82e0 e23d a4c7 543e 0d8f 793e
00000250: 5a8d 413e ae20 b6be d25d 67bd b1b7 843e
00000260: d281 1f3e edd7 863e a95b 6b3d 2b99 1d3d
00000270: b7c6 febd 393e b7bd 062a efbe d6e8 3fbd
00000280: f1ef 6e3e c2ca a3be 89a8 d13e 07c7 84be
00000290: 842f 93be 9eb7 3e3e f222 4abd e57d 9dbe
000002a0: 9e8a ae3e ab89 01be b66d 24be 33a0 993e
000002b0: c209 f63d 8d23 803e a820 8a3e a053 c03e
000002c0: 84e3 943e 4670 453e ca52 97be ee65 83be
000002d0: 9694 5abc 9354 063e faf8 6abd 8668 9a3e
000002e0: 3656 acbe ece5 a5be 2f79 8d3e c658 91be
000002f0: dcd9 b13e 233c bbbe b192 9bbe 959a aebe
00000300: da8f e73e 29da 933e c0c2 073f 6973 e23e
00000310: a9c9 063f b196 203f a58d d13e efed fb3e
00000320: e232 093f e301 d13e d767 9f3e 4061 123f
00000330: db00 283f 1752 d43e c0d1 d33e 10a6 cb3e
00000340: ae5b f73e 4bcb b73e 9c95 103f 608e f83e
00000350: 2901 093f 1496 de3e 811c c33e 72e6 a43e
00000360: 241d f33e 8ee4 b73e 51e1 1a3f 8cf7 0b3f
00000370: 9182 cf3e 20b9 dd3e c551 f53e 05a1 e03e
00000380: b8e1 f13e 64f4 183f 3109 043f 4a77 013f
00000390: 6ba2 c63e 257d cd3e e7fd cf3e f955 e63e
000003a0: de32 a63e 4571 933e 8838 de3e 11d9 013f
000003b0: 1a0c 103f 8bfd 023f 6de1 f13e 8143 b53e
000003c0: d8b4 d93e d666 e63e efcc 083f d9a8 fc3e
000003d0: 9db0 163f 8967 033f bb97 d73e f7e3 0d3f
000003e0: ae44 ea3e bead 173f 900b fa3e ee27 fd3e
000003f0: 0807 093f aa25 fc3e 070d eb3e 3752 de3e
0.42549008 0.42251995 0.555305 0.45287064 0.56694025 0.55983865 0.5104434 0.44870007
0.58986074 0.41368678 0.45030096 0.46613494 0.5465354 0.50321 0.3863585 0.29703602
0.3906011 0.5342244 0.52167886 0.47647503 0.5453685 0.5121802 0.3557807 0.44008636
0.3640529 0.43257996 0.5667574 0.437527 0.5788386 0.60600257 0.45370093 0.44439986
0.44805944 0.62813365 0.53616506 0.5731031 0.38831687 0.38007694 0.42762497 0.5274099
0.49885374 0.48416117 0.38922927 0.40021616 0.50854415 0.45252877 0.43305993 0.5323476
0.36572504 0.5002909 0.3695873 0.56805843 0.5879797 0.5185792 0.47049525 0.3698744
0.487111 0.54195195 0.4160695 0.45382607 0.356135 0.39956892 0.49342284 0.3707905
-0.11506051 -0.054112077 0.06688917 0.021221876 0.013703927 -0.016639575 0.10609287 0.09971543
0.06459826 0.014844701 -0.040100798 0.036745936 0.054334193 0.11225627 0.03964944 0.014543742
-0.009753078 -0.033558235 -0.017291218 -0.11112587 0.03198114 -0.017074198 -0.09504332 0.04901825
0.11435911 -0.11150476 0.03856775 -0.12454234 -0.024618372 -0.03578736 0.00284864 -0.036735907
0.01383397 -0.06698704 -0.030495793 -0.07750295 -0.115029275 0.05431539 0.10404347 0.09199786
-0.054564625 0.08486283 -0.10835944 -0.0719907 0.122023866 0.06639646 -0.10376716 0.026103318
0.09102759 0.056532532 -0.010084122 -0.09677176 -0.05956742 -0.042147383 -0.09879045 -0.07336758
-0.118967205 -0.090273425 -0.033267334 -0.11387916 -0.115412906 0.106398866 0.104998365 -0.07752961
0.47522587 -0.18727049 -0.4078086 -0.39160672 0.24082012 -0.21819896 0.41657913 0.38619965
-0.035651818 -0.1020679 -0.27316758 0.29494146 -0.21975937 -0.03514266 -0.30051467 0.36611083
-0.2847645 0.11077978 0.20779282 0.24370976 0.18901578 -0.35571808 -0.05648596 0.25921395
0.15576866 0.26336613 0.05746046 0.03847615 -0.124402456 -0.08947415 -0.4671175 -0.04685291
0.23333718 -0.3199063 0.40948895 -0.25933096 -0.2874719 0.18624732 -0.049349733 -0.30760112
0.34090132 -0.12650172 -0.16057476 0.30005035 0.1201358 0.25027123 0.2697804 0.375638
0.2907983 0.1928111 -0.2955535 -0.25663704 -0.01334109 0.131182 -0.05736635 0.3015787
-0.33659524 -0.3240198 0.27631518 -0.2838804 0.34736526 -0.36569318 -0.30385354 -0.34102312
0.45226938 0.2887738 0.5303154 0.44228676 0.5265146 0.62729937 0.4092838 0.49204966
0.53593266 0.40821752 0.3113391 0.5717964 0.65626305 0.4146888 0.41370964 0.39775133
0.48312134 0.35897288 0.56478286 0.48546124 0.53517395 0.43473876 0.38107684 0.32207066
0.4748317 0.3591656 0.60500056 0.546746 0.40529302 0.43305302 0.47913948 0.43872848
0.47242522 0.5974791 0.51576525 0.50572646 0.3879579 0.4013454 0.406234 0.44987467
0.32460684 0.28797355 0.43402505 0.5072184 0.56268466 0.51168126 0.472423 0.35403064
0.42520785 0.45000333 0.53437704 0.4934757 0.5886324 0.5132986 0.4210795 0.5542597
0.45755523 0.59249485 0.48836946 0.49444526 0.53526354 0.49247485 0.45908377 0.434221

lstm.bias_hh_l0 f4 [256]
00000000: ae8e 9d3e 9ec0 b03e 317f cc3e 5265 113f
00000010: c501 003f 0b16 f83e 6438 ff3e 6a66 af3e
00000020: 4cb9 093f 1263 023f 9598 d53e 15e1 003f
00000030: c88e 083f 62bf cd3e fb57 cf3e 01e1 f83e
00000040: ed3c e53e 5a9c d33e cc4c 053f f8fd 993e
00000050: 9434 e53e 90ef 1e3f e4b1 df3e d441 8d3e
00000060: d4d2 f93e 3996 d83e c3ee 0e3f 3f74 fe3e
00000070: 5ace be3e 8cbf ed3e fa68 cb3e 8ead b83e
00000080: f1a7 183f bab8 183f 90f9 f13e b066 103f
00000090: a447 fd3e 41f7 e73e 020b f23e 35e8 e53e
000000a0: 73da b13e e697 a83e e49b ff3e d795 093f
000000b0: 97e7 e63e 0654 063f a5ae f13e bef6 113f
000000c0: 35e7 013f 0552 b93e 5016 d53e 2ed3 c93e
000000d0: b510 ef3e a169 e03e de27 c53e da82 e73e
000000e0: 796d b23e 0a9d 0e3f 001e 043f d904 c03e
000000f0: 61ec fe3e 186c c73e 93fd 223f 7ec2 bd3e
00000100: c06e 6fbc 5abf e03d 00c9 383c 54c1 f83d
00000110: 0058 a93d c824 4dbd b0fb 75bd 24c0 3a3d
00000120: a067 01bc dc05 883d defd afbd 7c59 7c3d
00000130: 08d7 92bc c032 803c 6c71 c8bd 20d0 7d3c
00000140: 16a5 bd3d 3a25 cc3d e0a2 83bc 444c 323d
00000150: 209b 18bd 107f 0bbd aeb2 e13d 32d9 8bbd
00000160: e836 cdbc 5085 f93d 5e39 d3bd 5223 82bd
00000170: 1a05 823d 8857 ccbd d6aa 833d f474 29bd
00000180: 10af 4fbd 0097 a1bb 5010 423d e0db 8fbd
00000190: 0afa e63d 80f3 87ba b069 6dbc 7e8d e03d
000001a0: a407 19bd 585b fc3d 0a15 d93d 3e73 f03d
000001b0: 20b3 933c 40db 9ebd b095 8e3d c4c6 37bd
000001c0: f62f e4bd 2ead 81bd 20e8 c93b 0042 2e3d
000001d0: 46a3 b43d c01b 72bd da05 dcbd 9cc8 b3bd
000001e0: 06e6 91bd 54e9 28bd d0bc fa3d 0029 bdbb
000001f0: f057 613c 2a74 963d 78c7 f23c b659 d2bd
00000200: fca0 f03e ce19 b9be fb18 c6be 05ba b3be
00000210: d2a4 c83e 1e41 91be cf7c a53e acdf ac3e
00000220: 227d 8abe 6879 a5be bc2d a7be b979 5f3e
00000230: 2deb a0be fa6d 1fbb 0d5a 88be 87c0 d03e
00000240: 15f8 c6be e60c 74bd d160 893e 7e78 bf3d
00000250: 71bf 223e a8d8 d3be e592 963d 12d0 613e
00000260: a31a 1a3c a5e8 513e ed15 40bd 512f cabd
00000270: d0b6 9ebd 3c4c b1bd 88a0 c5be 00f3 11be
00000280: b2a9 8b3e 0932 54be 212c df3e f559 bcbe
00000290: e6ce 24be aab1 4d3e 35e4 013e b03f 3dbe
000002a0: 8452 823e 782b 44be 0bf4 40be 4720 433e
000002b0: bea7 fa3d 2348 953d 50b1 c83e c990 953e
000002c0: 1bec 913e 96c2 8a3e 58f4 9abe dc4d 92be
000002d0: 3fef 83bd 9af5 6d3d e088 a83d 18c9 a23e
000002e0: ef84 b8be 5d8b 99be b097 b83e f6cc debe
000002f0: c199 563e 4e81 b5be 295d bcbe f8e5 d8be
00000300: c913 dc3e 4486 df3e 1b30 cc3e dd18 fa3e
00000310: 92fd 123f 6501 fc3e cca3 b63e 9de0 0f3f
00000320: 69b6 093f f253 ca3e 5190 cb3e 7007 033f
00000330: 7a04 d93e 0505 143f 43f6 eb3e d2dc 933e
00000340: 012d f83e ca90 0e3f 1f15 183f fe59 c33e
00000350: b338 d03e 0db8 dc3e b2d1 d23e 60a9 c83e
00000360: 2954 c53e eb3d f03e d91d 323f 1dc6 fa3e
00000370: 00ab bc3e 4526 d13e 877a 9e3e 1f10 9e3e
00000380: 7fe7 f33e d3d5 1e3f f5e4 a73e 2e47 0c3f
00000390: 641d e03e a426 df3e f5cb 083f 663d d33e
000003a0: 7166 013f 641b fc3e 6cf1 133f c650 f33e
000003b0: 3a24 e83e c4aa 113f 999f e73e 0add de3e
000003c0: d54a d33e 3695 cc3e 235f 0f3f 10e7 dd3e
000003d0: a54d f53e 196e b33e 7669 163f 2bdb ae3e
000003e0: 767f cc3e 80f8 0a3f 8374 d53e c0d6 203f
000003f0: 1e9b dc3e 43ff b43e ddeb dd3e fefc ef3e
0.30772918 0.34521955 0.3994079 0.5679523 0.500027 0.48454317 0.4984771 0.34257823
0.53798366 0.5093242 0.41717973 0.5034345 0.53342867 0.40185076 0.4049681 0.48609164
0.44773045 0.41330224 0.5207031 0.30076575 0.44766676 0.62084293 0.43690407 0.27589285
0.48793662 0.4230211 0.5583307 0.49698064 0.3726681 0.464352 0.39728528 0.36069912
0.5963126 0.5965687 0.47260714 0.5640669 0.4946872 0.45305827 0.47274023 0.44903722
0.34736976 0.3292839 0.49923623 0.5374426 0.45098564 0.5247196 0.47203556 0.57017124
0.5074342 0.36195388 0.41618586 0.3941893 0.46692434 0.43830588 0.3850698 0.4521702
0.34849146 0.5570837 0.51608276 0.37503698 0.49789718 0.38949656 0.63668174 0.37062448
-0.014613807 0.109739974 0.011278391 0.121462494 0.08268738 -0.050083905 -0.06005448 0.045593396
-0.007898241 0.066417426 -0.08593343 0.061608776 -0.0179248 0.0156492 -0.097872585 0.015491515
0.09260003 0.09968038 -0.016068876 0.043529764 -0.037257314 -0.034056723 0.110204086 -0.06828536
-0.025050595 0.121836305 -0.10313676 -0.06354393 0.06348629 -0.09977633 0.06429069 -0.0413713
-0.050704062 -0.0049313307 0.047378838 -0.0702436 0.1127816 -0.0010372251 -0.01449053 0.109644875
-0.037360802 0.1232211 0.10599716 0.11740731 0.01802975 -0.07756662 0.069621444 -0.044867292
-0.1114196 -0.063318595 0.0061617047 0.04254341 0.088202044 -0.059108496 -0.107433036 -0.087784976
-0.071239516 -0.041238144 0.122430444 -0.00577271 0.013753876 0.07346375 0.02963613 -0.10271017
0.4699782 -0.361525 -0.38690934 -0.3510286 0.39188248 -0.28369993 0.32321784 0.33764398
-0.27048594 -0.32319188 -0.3265208 0.21823777 -0.31429425 -0.0024327026 -0.26631203 0.40771887
-0.38861147 -0.059582613 0.26831678 0.09349154 0.15893342 -0.41376233 0.07352237 0.22052029
0.009405765 0.20498903 -0.04689591 -0.09872306 -0.077497125 -0.08657119 -0.38599038 -0.14252853
0.27277905 -0.20722212 0.43588355 -0.36787382 -0.1609455 0.20087305 0.1268471 -0.18481326
0.2545358 -0.19157207 -0.18843095 0.19055282 0.122390255 0.072891496 0.3919778 0.29212025
0.28500447 0.27101582 -0.30264544 -0.28575027 -0.06442117 0.058095552 0.08229232 0.31794047
-0.3603892 -0.29989138 0.36053228 -0.43515748 0.2095709 -0.35450214 -0.36789826 -0.42362952
0.42983845 0.43657124 0.39880452 0.48847094 0.5741817 0.49219814 0.35671842 0.5620211
0.5379396 0.3951717 0.39758542 0.51183224 0.42386228 0.5782016 0.4608632 0.2887941
0.48471835 0.5568968 0.5940723 0.38154596 0.40668258 0.4310917 0.4117561 0.39191723
0.38540772 0.4692224 0.69576794 0.48979273 0.36849213 0.4084951 0.30952856 0.30871674
0.47637555 0.6204502 0.32791868 0.5479611 0.43772423 0.43584168 0.53436214 0.4125778
0.5054694 0.49239647 0.57790256 0.47522563 0.4534014 0.5690119 0.4523895 0.43528014
0.4126803 0.3995759 0.5600454 0.4334035 0.479108 0.35044935 0.5875467 0.34151587
0.39940995 0.5428543 0.41690454 0.6282768 0.43087095 0.35351 0.43344012 0.46872705

lstm.weight_ih_l1 f4 [256, 64]
00000000: 6d0c c83e af20 77be 4cef 82be 3f85 c4be
00000010: 74cd bd3e 8b56 4bbe 0d0a 903e 31da e53e
00000020: 7672 f8bd de06 76bd bae9 9cbe 4c45 613e
00000030: eed6 9fbe cee9 683c 16e4 c0be 95e4 873e
00000040: bbf8 dabe 1947 703d aa0f 903e a24d 94bd
00000050: 6ed6 7c3e eef6 90be a3bc 9fbb 6362 5c3b
00000060: 1eb0 043e 7f80 cf3e 2df7 9a3c 5938 9cbe
00000070: d976 c83d e620 5bbe 521b b3be 0506 46be
00000080: 782f 873e bdb9 29be 22c7 d03e 910a aabe
00000090: c106 e0be ec00 c43e 192d 3cbd a796 6cbd
000000a0: 0193 b63e 7c11 babe 1d32 37be 91b3 ac3e
000000b0: f5d9 8c3e 64d7 483d 7b9a f33e 57b0 c93d
000000c0: 59f1 df3e 9799 a03d c36d 37be d421 8dbe
000000d0: bd13 97be 47a7 983e 628b 523e 3ee9 313e
000000e0: 530a 90be a5ff d3be 3165 883e 1e29 8bbe
000000f0: 3bfb 423e f8e6 d7be 6536 88be 7a69 afbe
00000100: e78a ab3e 6737 efbe d731 80be ca7e 22be
00000110: 1f09 a83e e6eb 18be 122f a43e 8ffc 973e
00000120: df61 8fbe b723 b3be b108 0ebe 318f e13e
00000130: 080c efbe 86ef f03d b7a4 95be 7926 a83e
00000140: 997f b0bc 9db0 813e 31bf b63e 9521 41be
00000150: 8b52 f23a c3e3 01bf de6d 243e 0a5c bd3d
00000160: d696 0abc 3808 3f3d c1be e0be 9563 7a3e
00000170: 1a40 24be 4298 02be 3f3e 69be 7d5d 9dbe
00000180: 88b7 613e da0b 99be d2ab cc3e f3b9 f7be
00000190: e535 96be 7ad5 a23c 3c42 cabd a3ca 013e
000001a0: bf93 583e f9af 7dbe 07e2 20bd ab31 d7bd
000001b0: 16c2 793e 85a9 6d3e afb8 453e 6dec afbc
000001c0: 3702 343e afb0 cd3d f38e 84be 38f5 43be
000001d0: 3058 39be ece8 be3d 3991 b3be 7613 c8bd
000001e0: b430 bebe aae4 c4be b95e f93d e6b2 debe
000001f0: a0b4 d63d 6f1b a93c 9d0b 66be 597c a8be
00000200: 2981 d93e ba62 1ebe 4687 9ebe 7d5c 90be
00000210: 70a2 ca3e 747d 9dbe e0be 033f af41 d73e
00000220: 7839 56bd da02 95be 35d1 a2be 5574 d63e
00000230: 0a2c 11be e13a d73b 260b 81be d5a7 cf3e
00000240: 71e9 59be fae8 3bbe 7622 3f3e 712d 843d
00000250: 2d5e cc3e 9c49 ecbe 60c3 73be c33f 823e
00000260: 4587 2b3e fa62 c53e 61eb 88be e3ea 6cbe
00000270: af82 89be b32b 5f3b 468a e3be 3b81 a0be
00000280: 2525 f63e 467c afbd a216 a93e 0e23 a9be
00000290: 3430 adbe e4ea 973d 2d5a 94bd 22f1 0ebe
000002a0: dae8 8d3e afd3 b5bd 0489 e63c 48e0 b43d
000002b0: ae2f ec3d 1bfc d73c 6509 803e 26b2 fe3d
000002c0: 3d50 9e3e a7a8 b93d ae72 60be 2584 c5be
000002d0: 0719 9e3b 0c2b bf3e 2e3e 54bd 6a66 723e
000002e0: ac7b 8bbe 4332 e5be d8e1 ce3e 6077 d3be
000002f0: 25cf 803e 0984 c1be 9313 08bf 7979 81be
00000300: 8fae ca3e 7eee 62be 6fb9 bbbe 3cca d2be
00000310: 53f2 e53e b047 a0be 429c ee3e 01e6 813e
00000320: fc28 37be fe85 febd f960 89be b6e9 f93e
00000330: a7b9 f4bd 2466 adbd 7c41 77be 1f19 d83e
00000340: 8214 a2be ff21 d5bd d438 983e 67a7 b03d
00000350: 5a66 ba3e 33e2 e0be 4650 d2ba 7551 863d
00000360: 1ef2 0a3e 0ed5 b13e bd8d 4ebb 1a41 9abe
00000370: 5576 f9bd 7953 f4bd 4d82 7bbe b50c 71be
00000380: 2494 e13e 0827 c4bd 8fe2 c13e 5fe2 c8be
00000390: 1a2c 72be ae33 0f3e b0ff 45bc 3e59 3ebe
000003a0: 1b93 b93e 700f ffbd b252 bc3d f4de 9b3e
000003b0: 596d bc3d 32f5 22bd d9cc 8c3e 4b82 253e
000003c0: 4d2b 9a3e 812c 043e 4663 afbe 69fe bfbe
000003d0: 61fe 20be 6dc7 9c3e 9b95 c83d 4a3a aa3e
000003e0: c4ce edbe 8bd3 85be 6d63 683e 7fb4 87be
000003f0: b951 9a3c 4493 e5be 8664 3fbe abff 8ebe
0.3907198 -0.24133562 -0.25573194 -0.3838291 0.3707081 -0.19857232 0.28132668 0.4489303
-0.12131207 -0.060065143 -0.3064707 0.21999091 -0.31218666 0.0142159 -0.37674016 0.26541582
-0.4276789 0.058661554 0.2813695 -0.0724137 0.24691173 -0.28313392 -0.004874782 0.003362798
0.12957808 0.40527722 0.01891669 -0.3051174 0.097882934 -0.21399269 -0.3498178 -0.19338234
0.26403403 -0.1657476 0.40776926 -0.33211187 -0.43755153 0.38281953 -0.045941446 -0.05776086
0.3565903 -0.36341465 -0.1789021 0.33730748 0.27510038 0.049033538 0.47578797 0.09848087
0.4373882 0.07841795 -0.17912965 -0.2756487 -0.29507247 0.29815122 0.20560983 0.17374131
-0.28132877 -0.4140598 0.26639703 -0.27179807 0.1904115 -0.42168403 -0.26604 -0.3426016
0.33504412 -0.46721956 -0.25038025 -0.15868679 0.3281946 -0.14933738 0.32067162 0.29684874
-0.28004357 -0.34988186 -0.13870503 0.4405456 -0.46688867 0.117644355 -0.2922723 0.32841852
-0.021545218 0.25330058 0.35692742 -0.18860467 0.0018487734 -0.5073816 0.16057536 0.09246071
-0.008458814 0.046638697 -0.43895534 0.2445205 -0.16040078 -0.12753394 -0.22777651 -0.30735388
0.22042668 -0.29891855 0.39974838 -0.48384055 -0.29337993 0.019877184 -0.098759145 0.12674956
0.2115011 -0.2477416 -0.039278056 -0.1050752 0.24390444 0.23209198 0.19308732 -0.021475041
0.1757897 0.10043465 -0.25890312 -0.19136512 -0.18100047 0.0932177 -0.35071734 -0.09769337
-0.37146533 -0.38455707 0.1217627 -0.43495864 0.1048367 0.020642964 -0.22465368 -0.3290737
0.42481354 -0.15467349 -0.3096258 -0.28195563 0.39577055 -0.30759776 0.5146313 0.420423
-0.0523009 -0.29103738 -0.31800237 0.4188563 -0.14176956 0.006568298 -0.25203818 0.40557733
-0.21280457 -0.18350592 0.1866549 0.0645398 0.399156 -0.4614991 -0.23804998 0.2543927
0.1675082 0.38552076 -0.2674208 -0.23136477 -0.26857516 0.0034053146 -0.44441432 -0.31348595
0.48075214 -0.08568625 0.3302508 -0.33034557 -0.3382584 0.07417849 -0.07243762 -0.13959172
0.27716714 -0.08878266 0.028141506 0.08831841 0.11532532 0.02636533 0.25007167 0.12436323
0.30920592 0.09065371 -0.21918747 -0.3857738 0.004824761 0.3733753 -0.05181711 0.2367188
-0.27242792 -0.4476491 0.4040668 -0.41302013 0.2515804 -0.37796047 -0.5315487 -0.2528799
0.39586303 -0.2216129 -0.36664912 -0.41169918 0.4491144 -0.31304693 0.4660359 0.25370792
-0.17886728 -0.12427901 -0.26831797 0.4881112 -0.11949473 -0.084667474 -0.24146074 0.42206666
-0.3165627 -0.10406875 0.29730856 0.086256795 0.36406213 -0.43922576 -0.0016045652 0.065585054
0.13568923 0.3473286 -0.0031517588 -0.30127794 -0.12180773 -0.11929984 -0.24561425 -0.23540004
0.44058335 -0.09577757 0.37868163 -0.39235207 -0.23649636 0.13984558 -0.012084886 -0.1858873
0.36245045 -0.12454116 0.091954604 0.30443537 0.09200544 -0.039784618 0.27500036 0.16162984
0.3011116 0.12907602 -0.34255427 -0.37498787 -0.15722038 0.306209 0.0979416 0.33247596
-0.46446812 -0.26137957 0.22694178 -0.26504895 0.018837797 -0.44838917 -0.1869069 -0.27929434

lstm.weight_hh_l1 f4 [256, 64]
00000000: 20e6 583c e05f df3d c054 833c 00c4 7cba
00000010: 3462 80bd 60b8 c53c 00f3 68bd e0ed a73b
00000020: 58a1 45bd bcf4 9abd 5466 0fbd 4477 c5bd
00000030: 5eb0 a9bd 4899 c43c 3cbe 003d b4e9 d13d
00000040: 601c e5bd b42a 203d 5eae c73d 2485 90bd
00000050: 50d1 edbc 80f8 31bd 60a8 b2bb 7614 9d3d
00000060: a0eb 543c ae01 de3d 0002 743a cca0 8dbd
00000070: 943a bebd 6c2d 4a3d f805 a83d 5c83 0c3d
00000080: b42d 273d 9e92 c5bd e0df 7a3c ec15 a1bd
00000090: 7ee2 a33d 8087 1abd b0f7 ecbc 709b a7bc
000000a0: da31 9f3d 26a7 af3d 08a3 b0bd 4861 e5bd
000000b0: f84b 993c e211 db3d 0413 4dbd 303e 273c
000000c0: 58e8 84bd 26bd 87bd 3078 b0bc b00c 6ebc
000000d0: 9677 b23d b0a5 41bc f46b cbbd 3442 25bd
000000e0: a4d2 6a3d bc9f 903d a0b6 dd3d 1886 983d
000000f0: dad5 81bd e0f7 4c3d f8f1 90bd c8fd dabd
00000100: f8b9 923c 54b2 413d d051 713c f473 f23d
00000110: 8e3a c83d 2064 df3b a07b 5bbd e4e1 76bd
00000120: 8423 a63d e821 ba3d e0bb acbd aa88 ad3d
00000130: 2821 cfbd a82e e43d a6d1 e23d 9073 7fbd
00000140: 80af bf3b 00b9 423b 202c e03d e428 573d
00000150: da2f a73d 6051 97bd 30ea a63c b0d8 2ebd
00000160: 904a 213c 90c1 833c 58f1 10bd d8f8 c1bc
00000170: 00b9 f9bc 20de ba3d 849c 053d 98dc 80bc
00000180: cc45 cf3d d4ac 8bbd aa12 873d e07e dc3d
00000190: c010 4c3b ac3f 7a3d f0cb 1d3d d0bc d83d
000001a0: 00e2 d2bb 60cf 2f3c f050 0b3c b615 82bd
000001b0: 2818 e7bc bc8f bdbd d0a7 2a3c 8cec 3fbd
000001c0: 18b8 efbd 4007 ecbb 20fd dcbd 7a71 d1bd
000001d0: fc92 ebbd ea4f 8fbd be02 a93d b8ca afbc
000001e0: faaf f1bd 0a75 bf3d 4a0e cf3d 843a c33d
000001f0: 940d 92bd 7274 8f3d 707f 9c3d 0cb1 c7bd
00000200: 00b4 4a3a 9c5b 323d a0d1 f23c f0b8 813c
00000210: 7ae4 b33d 404a 5bbd 2a54 e23d a8d5 e53c
00000220: c497 793d 324b 803d 209d 8b3c 501b 9cbd
00000230: ace2 b9bd 303a 9fbd 5088 123d e006 4bbc
00000240: c444 ba3d b2b9 bb3d 8c78 823d 086d 373d
00000250: be5d bc3d aece 81bd 469e bebd 98b4 12bd
00000260: b051 fbbc 9e81 e5bd 90c9 db3d 3812 8bbd
00000270: 486a 5fbd 8689 ba3d 6a78 d8bd 46ce bebd
00000280: ac9c 5c3d ec0f 803d b4ab 91bd 000e cabd
00000290: 208c 15bc 1a94 f2bd 50a9 c9bc ea41 e4bd
000002a0: 4887 af3c 32ba d6bd b893 c6bd 24eb 443d
000002b0: dab9 8ebd a6bf f63d 00f3 85bd c6eb c13d
000002c0: 34aa bdbd 2217 903d 3018 e7bc dc6d 283d
000002d0: 40f2 f33b 20be fb3c 2eff c7bd 081c 2e3d
000002e0: 7c3e a0bd ec45 733d 78bc 7ebd da53 eabd
000002f0: 3ca8 59bd bea6 c2bd fc3d 553d 4882 cdbd
00000300: 04e6 463d 48b1 a23d 960d 8b3d f462 0e3d
00000310: a028 3abd 6cd1 703d ac5d d43d a02a acbd
00000320: 6ea6 fe3d 982f 9b3c 509a 1fbd 1c24 79bd
00000330: c0d9 873d 1e20 803d da26 d03d 40e4 95bc
00000340: d4e4 12bd 12d3 983d 70f1 d7bc c06b e93c
00000350: 26d7 e7bd 849c fa3d fc5f 49bd 90ff 2dbd
00000360: 40e7 ac3d 6878 04bd f264 c83d 4c94 40bd
00000370: f023 523d 7c0b 4bbd e847 733d e0ac e23d
00000380: c4ee fb3d 3a06 9ebd b057 babd 80ad cc3c
00000390: ee66 d73d 828a ec3d f852 f3bd 101b febd
000003a0: f02e a03c 32e6 d03d 1098 43bd a007 cf3c
000003b0: ec48 92bd 3611 9fbd 3c4c 68bd 0640 ff3d
000003c0: bac2 ba3d 1832 93bd f0fb 86bc 3adb de3d
000003d0: a0b9 d43b 2032 5bbd f218 c1bd 6ae8 fe3d
000003e0: 0c30 7cbd 6c71 553d 7aa0 f53d 78ce f33c
000003f0: 0810 473d 4828 4e3d fcad b8bd 76db fd3d
0.01323846 0.109069586 0.016031623 -0.00096422434 -0.06268731 0.024135768 -0.056872368 0.0051247925
-0.048249573 -0.07566211 -0.035009697 -0.09641889 -0.082855925 0.023998871 0.03143142 0.102496535
-0.11187053 0.039103225 0.09750055 -0.070566446 -0.029030472 -0.04344988 -0.005452201 0.07669918
0.0129956305 0.10840164 0.00093081594 -0.06915435 -0.09288517 0.049359724 0.082042634 0.03430496
0.04081507 -0.09647106 0.015312165 -0.078655094 0.08002184 -0.03772688 -0.0289267 -0.02045986
0.0777318 0.08576803 -0.08624846 -0.112001956 0.018712983 0.1069677 -0.050066963 0.010207698
-0.064896286 -0.06627874 -0.021541685 -0.014529392 0.087142155 -0.011819288 -0.099327 -0.04034634
0.05732979 0.07061717 0.108258486 0.07447451 -0.06339617 0.05004108 -0.07077402 -0.10692936
0.017910942 0.047289208 0.014728978 0.118385226 0.097767934 0.0068173558 -0.053584695 -0.06027402
0.08112243 0.09088498 -0.08434272 0.08473332 -0.10113746 0.111417115 0.110751435 -0.06236607
0.0058497787 0.002971232 0.10945916 0.05252923 0.08163424 -0.07388568 0.020375341 -0.042687118
0.009844437 0.016083509 -0.035386413 -0.023678228 -0.030483723 0.09124398 0.032619968 -0.015730187
0.101207346 -0.06820074 0.06595357 0.10766387 0.0031137913 0.06109588 0.038524568 0.10582888
-0.0064356327 0.010730594 0.008503184 -0.06351797 -0.02820976 -0.09255931 0.010415986 -0.046856448
-0.11705035 -0.0072030127 -0.10790467 -0.10226722 -0.115026444 -0.06997664 0.08252476 -0.021458969
-0.11801143 0.09348495 0.10110147 0.09532645 -0.07131496 0.07004632 0.07641494 -0.09750566
0.00077325106 0.043544397 0.029640973 0.015835255 0.08783813 -0.053537607 0.11051209 0.02805598
0.06093575 0.06264342 0.017042696 -0.07622397 -0.09076437 -0.0777477 0.03577453 -0.012391776
0.09095147 0.09166278 0.06370649 0.044781715 0.091975674 -0.06338249 -0.09307532 -0.03581676
-0.0306786 -0.11206363 0.10731804 -0.06790584 -0.054544717 0.09108262 -0.10569842 -0.09316687
0.05386035 0.06253037 -0.07112828 -0.098659515 -0.009127647 -0.118446544 -0.024616867 -0.111453846
0.021426812 -0.10484733 -0.09696144 0.04807581 -0.06969042 0.12048273 -0.06540489 0.09468798
-0.09260979 0.07035662 -0.028209776 0.041120395 0.00744465 0.030730307 -0.097654685 0.0425072
-0.07824418 0.059392855 -0.062191457 -0.11441775 -0.053138956 -0.0950446 0.052061066 -0.10034615
0.048559204 0.0794397 0.06789701 0.034762338 -0.0454489 0.05879347 0.10369429 -0.084065676
0.12434088 0.018943593 -0.038965523 -0.060825452 0.066333294 0.06256126 0.1016366 -0.018297315
-0.03586276 0.074621335 -0.026360244 0.028493762 -0.11320333 0.12236884 -0.049163803 -0.04248005
0.08442545 -0.03234139 0.09784879 -0.047016427 0.051303804 -0.0495715 0.059394747 0.110681295
0.123014 -0.077160314 -0.09098756 0.024985075 0.10517679 0.11549856 -0.118810594 -0.124075055
0.019553632 0.10200156 -0.04775244 0.02527219 -0.07142815 -0.077669546 -0.056713328 0.124633834
0.091191724 -0.07187289 -0.016477555 0.10881658 0.006491855 -0.0535146 -0.09428586 0.12446673
-0.06156926 0.05211012 0.11993499 0.029761538 0.048599273 0.050331384 -0.0901756 0.123953745

lstm.bias_ih_l1 f4 [256]
00000000: e087 aa3e 7332 6e3e 0c4d 873e 7c2f 983e
00000010: 90ae b23e e91f c63e 4109 f03e 6f84 e33e
00000020: f6bb c53e 4c34 c83e 5d79 c33e 6d05 873e
00000030: d8a9 af3e b15a a13e b7ee 963e fd42 d63e
00000040: ce49 5c3e 18f9 813e 42a0 ab3e d3b5 c03e
00000050: ac81 d03e f4ef c93e 9387 893e e908 7c3e
00000060: ab8d a53e bef0 d03e 8a39 5c3e 7db5 8d3e
00000070: bc0c 6a3e 3228 ca3e 5ec1 e93e 357e b93e
00000080: bd8c d23e 38dd a63e 038b da3e 2732 d23e
00000090: 8d70 d33e 6875 a13e 9549 bc3e b921 d33e
000000a0: 06d6 7d3e eaa8 5c3e b1d4 b93e ef09 b53e
000000b0: d8dd de3e 8705 bb3e 863e 653e 21e2 e33e
000000c0: 3568 c13e f283 a03e 89b3 7b3e 6d93 af3e
000000d0: 8c05 a23e 92cb 9c3e 14bd 4c3e ba02 cf3e
000000e0: 0267 b23e 9f67 9e3e 2153 683e 3d34 913e
000000f0: ebd1 ab3e d8ef 873e d814 b43e ed8e c03e
00000100: d06c 393d 745f 573d 80f0 e7bb ecff fb3d
00000110: 76a5 b33d d60d aebd faaa a23d e0e9 e9bd
00000120: c283 f1bd 7e4c e2bd 7079 8fbd c03f e0bd
00000130: f83e 683d c05f e4bb 0020 8d3a 4a5c fbbd
00000140: 00fd 033d 38f3 ab3c ba85 e5bd 546c b9bd
00000150: c648 d53d 6057 5c3d 50aa e33d caaa ccbd
00000160: 481d 27bd 9cf4 eabd cc4f 123d f6dc e3bd
00000170: c8a2 8c3d 9836 b5bc 16f5 f23d c01f 29bb
00000180: cab9 a6bd d8c7 61bd 604e 143d f892 813d
00000190: a6cf d2bd 0433 253d 7c0f 063d f844 a1bc
000001a0: a033 423c 9001 9a3c 504b a73c 205d 79bc
000001b0: ccd8 4cbd 9470 9fbd f41e 4ebd c832 9d3c
000001c0: e87b 4ebd 9a65 d43d 686e d4bc 50c0 36bc
000001d0: cc2b 50bd 0e50 f13d b4cb d2bd 6ea5 8dbd
000001e0: 0e15 973d 4cb7 f53d e203 aabd 38c9 bf3d
000001f0: 784f 0a3d 8082 06bc 6863 78bd 6a62 dbbd
00000200: a4ce bb3d ed0c f13d aa54 d53d 6abc bbbd
00000210: f3b4 05be b7e2 52bc 03d3 6dba aa5c e5bb
00000220: a9d0 353c 1d33 e23d 517f 02be e881 93bd
00000230: cbc9 413d c8f6 cc3d e458 213d 6f7e a6bd
00000240: 6399 f7bb 69dd 463d 9c03 2abd 0e0e f9bd
00000250: 2ab6 503c dff4 bc3c 2cfd 813d a558 f43d
00000260: 326f b7bc 3ad1 513d 3f34 9fbd bbf1 dfbd
00000270: c592 1a3d 0dd6 22be 6022 b53d 28be 9f3c
00000280: fe8c 293e 41d0 f33d dcad 85bc 95c3 8cbd
00000290: f6dc 973c 436a 1d3d 6cda b6bb e0d4 f2bd
000002a0: bc11 cbbc 27c0 663c dbad 333e 7d9f f43c
000002b0: 5b87 b13d dc3a f53d 240b a13d 42a2 32be
000002c0: 332f ec3d 6837 7b3d 3dbb 853d 7bad 383d
000002d0: 2eb1 8f3b 0ed8 ecbc 2149 18be 902b 9bba
000002e0: a127 de3d 287b 9d3a 8d2e 043e 7a2f 993a
000002f0: 0fb6 5abd 3dc2 3ebd 4780 a63d cef5 923c
00000300: 5ac7 643e 7c2e 603e e9e6 8a3e e236 9c3e
00000310: 26ec 653e 56ae 9d3e 442d f33e 5a5b e93e
00000320: 9dd2 ba3e 775e 873e 0ae1 823e 6e68 b93e
00000330: 92f3 da3e b986 953e 7d76 e23e b121 8f3e
00000340: 2146 ca3e 473b 9f3e 942f a73e 8bbc c33e
00000350: eb4f d13e 10e4 b73e d238 f23e ff18 4b3e
00000360: f29e a23e 642f ad3e 3e59 903e d08f e63e
00000370: 053e 483e d6f5 453e 68ae ca3e 0a59 243e
00000380: 6477 e13e 2e59 d33e 08dd bb3e 991f c53e
00000390: acc5 e93e 519f b43e 73ad 7a3e d631 e73e
000003a0: f18f 4f3e ca2c bc3e 64d9 613e 8f6f d43e
000003b0: 6a28 773e f7cd 8d3e d41b a73e 6f16 dd3e
000003c0: 6ab6 723e 2bb5 e83e 10fa a73e f9dc cc3e
000003d0: ed4e 9b3e a6e6 843e 727b 793e e23b 783e
000003e0: b0bb 5f3e 7840 ca3e b4b1 783e 20a2 ad3e
000003f0: d39b e03e 0d58 4d3e 28b4 893e 4403 e93e
0.3330679 0.23261432 0.2642597 0.29723728 0.34898806 0.3869622 0.4688206 0.44436976
0.38619965 0.391024 0.3817853 0.26371327 0.34309268 0.31514505 0.29479 0.41847983
0.21512529 0.25385356 0.33520705 0.3763872 0.40723932 0.39440882 0.26861247 0.24612774
0.32334647 0.40808672 0.21506324 0.27677527 0.2285642 0.39483792 0.4565534 0.362291
0.41123 0.32590652 0.42684183 0.41053888 0.41296807 0.31534886 0.3677489 0.41236666
0.24788675 0.2154881 0.36295083 0.3535914 0.43528628 0.36527655 0.22387132 0.4450846
0.37774816 0.31350666 0.24580206 0.34292164 0.31644857 0.30624062 0.19994003 0.40431768
0.34844214 0.30938432 0.22687961 0.28360167 0.33558592 0.26550174 0.35172153 0.37609044
0.045269787 0.052581266 -0.0070782304 0.123046726 0.087717935 -0.08498733 0.079427674 -0.11421561
-0.11792709 -0.11049746 -0.07005584 -0.10949659 0.056700677 -0.006969422 0.0010766983 -0.12273462
0.0322237 0.02099 -0.11207147 -0.09053865 0.10414271 0.053794265 0.11116469 -0.09993513
-0.04079941 -0.11472437 0.03572063 -0.11126129 0.068669856 -0.022120759 0.11863153 -0.0025806278
-0.08140905 -0.055122226 0.036207557 0.0632686 -0.10293512 0.040331855 0.03272961 -0.019686207
0.011853129 0.018799573 0.020421654 -0.015219957 -0.05001144 -0.077851444 -0.050322488 0.019189253
-0.050411135 0.103709415 -0.025931552 -0.011154249 -0.050823018 0.11782847 -0.102927595 -0.06916319
0.07377063 0.11997852 -0.08301522 0.09364551 0.033767194 -0.008209825 -0.060641676 -0.1071213
0.09170273 0.117700435 0.10416539 -0.091667965 -0.13057308 -0.012871436 -0.0009072276 -0.006999572
0.011097112 0.11044905 -0.1274388 -0.07202512 0.047311585 0.10008007 0.039391413 -0.08129584
-0.007556127 0.048550997 -0.04150735 -0.12160884 0.012738744 0.023065982 0.06347117 0.1193097
-0.02239189 0.051224925 -0.07773637 -0.10934778 0.037737627 -0.15901966 0.08844447 0.019499853
0.1655769 0.11904956 -0.016318254 -0.06873242 0.01853798 0.038431417 -0.005580237 -0.11857009
-0.02478873 0.014083899 0.1754679 0.029861206 0.08668395 0.11974117 0.07863453 -0.17444709
0.1153244 0.061332136 0.065298535 0.04508732 0.004385135 -0.028911617 -0.14871646 -0.0011838544
0.10847402 0.0012014853 0.12908383 0.0011687123 -0.05339628 -0.04657196 0.08129936 0.017939474
0.22341672 0.21892732 0.27129295 0.30510622 0.22453365 0.3079707 0.47495472 0.45577508
0.3648881 0.26439258 0.25562316 0.36212486 0.42763954 0.29204348 0.44231024 0.27955392
0.3950663 0.31099913 0.32653487 0.38229784 0.40881285 0.35916185 0.47308975 0.19833754
0.3176189 0.3382522 0.28193086 0.45031595 0.19554909 0.1933206 0.39586186 0.1604959
0.440364 0.41278976 0.3669207 0.3850067 0.45658624 0.352778 0.24480228 0.4515521
0.20269753 0.3675292 0.22055584 0.41491362 0.2413651 0.276962 0.3263842 0.43181178
0.23702398 0.4545072 0.3280797 0.4001234 0.30333653 0.2595722 0.24363497 0.24241593
0.21848941 0.3950231 0.24286538 0.33912754 0.43868884 0.2005312 0.2689526 0.45510304

lstm.bias_hh_l1 f4 [256]
00000000: 9410 3a3e 3279 953e 9e17 903e 9f7b c83e
00000010: 97cb 5a3e 8a1a e03e aafe b23e 7ba2 5e3e
00000020: 23c6 7b3e fdf7 ef3e 1a57 ae3e bab1 bf3e
00000030: 588d 7f3e 8e11 ce3e dde7 e83e 9d12 ab3e
00000040: 6ed4 c83e 21e7 783e 3978 a73e 4223 c33e
00000050: 5487 b03e 5392 a43e 1a03 9b3e c5b8 aa3e
00000060: 3c89 c53e 00df 853e b84c 933e ad8c 8d3e
00000070: f3b2 c63e 5d4f 5e3e 95e7 dc3e 0f3e b03e
00000080: 345f 833e 4afe cb3e 7d58 6b3e 906f 923e
00000090: 476e b53e f6e2 983e 844b d33e 1368 cb3e
000000a0: 9929 543e a7e1 a23e 9a29 a73e 365d c53e
000000b0: 39b1 a43e 2b49 a73e 0aa9 a53e 8f85 ca3e
000000c0: cdac 933e 5e4c 953e e289 883e 40f3 543e
000000d0: f048 cc3e 7381 223e c458 8a3e aa86 b93e
000000e0: 12a1 c03e 5340 f23e b8bc c53e 7212 6c3e
000000f0: d9ed 573e 257e cf3e 4a56 d23e 272b da3e
00000100: 38a1 99bd 546b 08bd 1428 fb3d d032 cf3d
00000110: 60fa 27bd fa35 a6bd 723a 9b3d 7612 cc3d
00000120: d627 923d 7859 793d cc30 7bbd 6c52 ecbd
00000130: 4c9b 153d 707d a43d 96f1 a23d 84b4 94bd
00000140: 60e3 bbbc 3ce8 773d 4226 8ebd cce9 3e3d
00000150: 86d0 e6bd 1caa 3e3d 0ec0 d5bd fc83 5e3d
00000160: 1083 c4bc 5044 3dbd 8011 82bc 909d 0fbc
00000170: b8e7 c83c 0043 9a3c 4239 ca3d d4ee 763d
00000180: 60ac 9e3b 9423 633d 9020 e73d c845 cfbd
00000190: 0014 1f39 80f1 c23d c0e4 3c3d 6a62 ff3d
000001a0: 2e9b c0bd 2068 dd3c d8c1 ad3c 2020 60bc
000001b0: aa6c 80bd 8e6d 943d 2c2c 5f3d 6042 5fbd
000001c0: 2e1c ed3d 8034 483b cc95 863d a8b3 7fbd
000001d0: 2c0f 4bbd 00bd f63b 2a0f ad3d 54a9 3cbd
000001e0: a4ad 733d e2ae bd3d e8ef af3d 40a6 f7bb
000001f0: 9e6f be3d ee58 f2bd b283 fb3d 4aef d1bd
00000200: 561d cd3c a839 5dbd f52d b1bd 901e 733d
00000210: 8a29 22be c316 b9bd 5200 123e 568f 8bbd
00000220: f3f9 ff3d 43ff 84bd 4915 db3d 6a93 83bd
00000230: 9fac ebbd c933 d7bd 79f4 e2bd 4553 2ebd
00000240: 892c db3b 2bdb 923d 8070 11be 64c6 4dbd
00000250: d176 533c 8ae5 86bd 524c c9bb 7270 9cbc
00000260: 8f3e 0f3e 8115 3e3d 0fed ba3d 4f08 da3d
00000270: 31c9 adbc 65af 33be 0172 123e 6072 1b3e
00000280: 9267 a13d 06fe abbd 2c21 0ebe 899c 0abd
00000290: 309c 6a3d d4a4 a5bc 2475 debd b1cb 71bb
000002a0: fe10 5fbd 0c34 dfbc ff69 fb3d 1dd0 90bd
000002b0: 12a7 493d 959f 803d 8f96 5d3d 066a b0bc
000002c0: c0f6 103e ebcd f4bd 81c7 27be 5da2 9b3d
000002d0: 4598 49bd 4c29 e33d 3d44 1fbe 7975 063c
000002e0: e825 94bc e4bd e1bd b02d 713d 08a8 413d
000002f0: c8a8 8abd 89d0 febd 64b0 1b3e acee 39be
00000300: 9637 b33e b8a4 313e 1258 ef3e c265 823e
00000310: 0590 a43e 8cfe 8d3e f719 903e 8b09 b23e
00000320: 95e4 c63e d1a0 c33e 9a4a a23e bbec 5f3e
00000330: c2b8 e23e a7e1 b23e c4be f43e 7a29 d63e
00000340: f640 883e c3cf 843e 4565 d63e d17d b23e
00000350: 672c 6e3e 0f12 3f3e 7716 c83e 1f03 c43e
00000360: f812 3c3e 81ae d93e 1f40 8f3e 5b84 6e3e
00000370: 5818 703e 4862 943e e18d 683e 013e a83e
00000380: 5595 b73e 9926 c43e fc26 e03e a714 653e
00000390: 6269 873e 555b ea3e 9ed7 d13e 6f6d b93e
000003a0: 5958 d53e cc0d 613e 0c43 8b3e 2caa df3e
000003b0: 3445 a23e e19b 783e 99d9 d13e ae38 bf3e
000003c0: 3078 b33e 936d e73e 4110 973e 0927 863e
000003d0: 5e36 d83e bbe4 aa3e cbc6 b43e 94bf b13e
000003e0: 3e9e b83e 7cc4 de3e ed26 b43e ef47 c93e
000003f0: 5504 e53e 56ee be3e 6ea2 c13e 31f7 e13e
0.18170387 0.29194027 0.28143018 0.39156815 0.21366726 0.43770248 0.34959918 0.21741669
0.24587302 0.46868888 0.34050828 0.37440282 0.24956262 0.40247768 0.45489398 0.33412638
0.3922457 0.24306919 0.3270891 0.38112837 0.34478247 0.32142887 0.30275804 0.33344093
0.38581264 0.26146698 0.2876947 0.2764639 0.38808402 0.21709962 0.43145433 0.34422347
0.25658572 0.39842445 0.22982974 0.2860074 0.35435697 0.29860657 0.4126855 0.3972784
0.20718993 0.31812784 0.32648927 0.38547677 0.3216646 0.3267301 0.3235553 0.39555022
0.28842774 0.29159826 0.26667696 0.20795918 0.39899397 0.15869693 0.27020848 0.36235553
0.37622887 0.473147 0.38620543 0.23053911 0.21086825 0.40525928 0.41081458 0.42611048
-0.07501453 -0.03330548 0.12263504 0.101171136 -0.04101026 -0.08115764 0.07579507 0.09964459
0.07136504 0.06087634 -0.061325833 -0.11539158 0.036525056 0.08031738 0.07956235 -0.07260993
-0.02293557 0.06052421 -0.06940891 0.046609685 -0.112702414 0.046548948 -0.10437022 0.05432509
-0.023988277 -0.046207726 -0.015877485 -0.008765593 0.024524555 0.018830776 0.09874202 0.060286358
0.004842326 0.05545385 0.11285508 -0.101207316 0.00015170872 0.09518719 0.04611659 0.12469943
-0.09404598 0.02702719 0.021210596 -0.013679534 -0.06270726 0.072474584 0.054485485 -0.05450666
0.115776405 0.003054887 0.0657154 -0.062427193 -0.049575016 0.007529855 0.08450158 -0.04605992
0.05949177 0.09261872 0.0859068 -0.0075576603 0.09298633 -0.11833368 0.12280978 -0.10250719
0.025038403 -0.054010063 -0.08651344 0.05935532 -0.15836158 -0.090375446 0.14257935 -0.068144485
0.12498846 -0.06494 0.10697419 -0.064246014 -0.11507534 -0.10507924 -0.11081786 -0.04255988
0.0066886586 0.07170709 -0.14203072 -0.05023803 0.012906746 -0.0658675 -0.0061431313 -0.019096587
0.13988708 0.046407226 0.091272466 0.10646116 -0.0212141 -0.17547376 0.14301302 0.1518035
0.078810826 -0.083980605 -0.13879842 -0.03384069 0.05727786 -0.020220198 -0.108621866 -0.0036895091
-0.054459564 -0.027246498 0.122760765 -0.070709445 0.049231596 0.06280438 0.054098662 -0.02153493
0.14156628 -0.11953338 -0.16384698 0.07599328 -0.04921748 0.11091861 -0.15553375 0.008206719
-0.018084481 -0.11022547 0.05888146 0.047279388 -0.06770474 -0.12442119 0.15204006 -0.18157452
0.35003346 0.17347991 0.4674688 0.2546826 0.32141128 0.27733266 0.2814481 0.34772906
0.3884627 0.3820863 0.3169754 0.2186765 0.44281584 0.34937784 0.47801793 0.4182852
0.2661206 0.2593976 0.41874138 0.34861615 0.23259126 0.18659233 0.3907964 0.3828363
0.18366611 0.42515948 0.27978608 0.23292677 0.23446786 0.28981233 0.22710373 0.32859805
0.3585612 0.38310698 0.43779743 0.2237116 0.26447588 0.45772806 0.40984815 0.36216304
0.41668966 0.2197792 0.2719959 0.43684518 0.31693423 0.24278213 0.40986326 0.3734793
0.35052633 0.45200786 0.29504588 0.26201656 0.4222898 0.33377632 0.35307917 0.34716475
0.3605823 0.4350928 0.35185948 0.39312693 0.44729868 0.3729121 0.37819237 0.44133905
